.CodeMirror {
    font-family: monospace;
    height: 300px;
    color: #000;
    direction: ltr
}

.CodeMirror-lines {
    padding: 4px 0
}

.CodeMirror pre.CodeMirror-line,.CodeMirror pre.CodeMirror-line-like {
    padding: 0 4px
}

.CodeMirror-gutter-filler,.CodeMirror-scrollbar-filler {
    background-color: #fff
}

.CodeMirror-gutters {
    border-right: 1px solid #ddd;
    background-color: #f7f7f7;
    white-space: nowrap
}

.CodeMirror-linenumber {
    padding: 0 3px 0 5px;
    min-width: 20px;
    text-align: right;
    color: #999;
    white-space: nowrap
}

.CodeMirror-guttermarker {
    color: #000
}

.CodeMirror-guttermarker-subtle {
    color: #999
}

.CodeMirror-cursor {
    border-left: 1px solid #000;
    border-right: none;
    width: 0
}

.CodeMirror div.CodeMirror-secondarycursor {
    border-left: 1px solid silver
}

.cm-fat-cursor .CodeMirror-cursor {
    width: auto;
    border: 0!important;
    background: #7e7
}

.cm-fat-cursor div.CodeMirror-cursors {
    z-index: 1
}

.cm-fat-cursor-mark {
    background-color: rgba(20,255,20,.5)
}

.cm-animate-fat-cursor,.cm-fat-cursor-mark {
    -webkit-animation: blink 1.06s steps(1) infinite;
    -moz-animation: blink 1.06s steps(1) infinite;
    animation: blink 1.06s steps(1) infinite
}

.cm-animate-fat-cursor {
    width: auto;
    border: 0;
    background-color: #7e7
}

@-moz-keyframes blink {
    50% {
        background-color: transparent
    }
}

@-webkit-keyframes blink {
    50% {
        background-color: transparent
    }
}

@keyframes blink {
    50% {
        background-color: transparent
    }
}

.cm-tab {
    display: inline-block;
    text-decoration: inherit
}

.CodeMirror-rulers {
    position: absolute;
    left: 0;
    right: 0;
    top: -50px;
    bottom: 0;
    overflow: hidden
}

.CodeMirror-ruler {
    border-left: 1px solid #ccc;
    top: 0;
    bottom: 0;
    position: absolute
}

.cm-s-default .cm-header {
    color: #00f
}

.cm-s-default .cm-quote {
    color: #090
}

.cm-negative {
    color: #d44
}

.cm-positive {
    color: #292
}

.cm-header,.cm-strong {
    font-weight: 700
}

.cm-em {
    font-style: italic
}

.cm-link {
    text-decoration: underline
}

.cm-strikethrough {
    text-decoration: line-through
}

.cm-s-default .cm-keyword {
    color: #708
}

.cm-s-default .cm-atom {
    color: #219
}

.cm-s-default .cm-number {
    color: #164
}

.cm-s-default .cm-def {
    color: #00f
}

.cm-s-default .cm-variable-2 {
    color: #05a
}

.cm-s-default .cm-type,.cm-s-default .cm-variable-3 {
    color: #085
}

.cm-s-default .cm-comment {
    color: #a50
}

.cm-s-default .cm-string {
    color: #a11
}

.cm-s-default .cm-string-2 {
    color: #f50
}

.cm-s-default .cm-meta,.cm-s-default .cm-qualifier {
    color: #555
}

.cm-s-default .cm-builtin {
    color: #30a
}

.cm-s-default .cm-bracket {
    color: #997
}

.cm-s-default .cm-tag {
    color: #170
}

.cm-s-default .cm-attribute {
    color: #00c
}

.cm-s-default .cm-hr {
    color: #999
}

.cm-s-default .cm-link {
    color: #00c
}

.cm-invalidchar,.cm-s-default .cm-error {
    color: red
}

.CodeMirror-composing {
    border-bottom: 2px solid
}

div.CodeMirror span.CodeMirror-matchingbracket {
    color: #0b0
}

div.CodeMirror span.CodeMirror-nonmatchingbracket {
    color: #a22
}

.CodeMirror-matchingtag {
    background: rgba(255,150,0,.3)
}

.CodeMirror-activeline-background {
    background: #e8f2ff
}

.CodeMirror {
    position: relative;
    overflow: hidden;
    background: #fff
}

.CodeMirror-scroll {
    overflow: scroll!important;
    margin-bottom: -30px;
    margin-right: -30px;
    padding-bottom: 30px;
    height: 100%;
    outline: none;
    position: relative
}

.CodeMirror-sizer {
    position: relative;
    border-right: 30px solid transparent
}

.CodeMirror-gutter-filler,.CodeMirror-hscrollbar,.CodeMirror-scrollbar-filler,.CodeMirror-vscrollbar {
    position: absolute;
    z-index: 6;
    display: none
}

.CodeMirror-vscrollbar {
    right: 0;
    top: 0;
    overflow-x: hidden;
    overflow-y: scroll
}

.CodeMirror-hscrollbar {
    bottom: 0;
    left: 0;
    overflow-y: hidden;
    overflow-x: scroll
}

.CodeMirror-scrollbar-filler {
    right: 0;
    bottom: 0
}

.CodeMirror-gutter-filler {
    left: 0;
    bottom: 0
}

.CodeMirror-gutters {
    position: absolute;
    left: 0;
    top: 0;
    min-height: 100%;
    z-index: 3
}

.CodeMirror-gutter {
    white-space: normal;
    height: 100%;
    display: inline-block;
    vertical-align: top;
    margin-bottom: -30px
}

.CodeMirror-gutter-wrapper {
    position: absolute;
    z-index: 4;
    background: none!important;
    border: none!important
}

.CodeMirror-gutter-background {
    position: absolute;
    top: 0;
    bottom: 0;
    z-index: 4
}

.CodeMirror-gutter-elt {
    position: absolute;
    cursor: default;
    z-index: 4
}

.CodeMirror-gutter-wrapper ::selection {
    background-color: transparent
}

.CodeMirror-gutter-wrapper ::-moz-selection {
    background-color: transparent
}

.CodeMirror-lines {
    cursor: text;
    min-height: 1px
}

.CodeMirror pre.CodeMirror-line,.CodeMirror pre.CodeMirror-line-like {
    -moz-border-radius: 0;
    -webkit-border-radius: 0;
    border-radius: 0;
    border-width: 0;
    background: transparent;
    font-family: inherit;
    font-size: inherit;
    margin: 0;
    white-space: pre;
    word-wrap: normal;
    line-height: inherit;
    color: inherit;
    z-index: 2;
    position: relative;
    overflow: visible;
    -webkit-tap-highlight-color: transparent;
    -webkit-font-variant-ligatures: contextual;
    font-variant-ligatures: contextual
}

.CodeMirror-wrap pre.CodeMirror-line,.CodeMirror-wrap pre.CodeMirror-line-like {
    word-wrap: break-word;
    white-space: pre-wrap;
    word-break: normal
}

.CodeMirror-linebackground {
    position: absolute;
    left: 0;
    right: 0;
    top: 0;
    bottom: 0;
    z-index: 0
}

.CodeMirror-linewidget {
    position: relative;
    z-index: 2;
    padding: .1px
}

.CodeMirror-rtl pre {
    direction: rtl
}

.CodeMirror-code {
    outline: none
}

.CodeMirror-gutter,.CodeMirror-gutters,.CodeMirror-linenumber,.CodeMirror-scroll,.CodeMirror-sizer {
    -moz-box-sizing: content-box;
    box-sizing: content-box
}

.CodeMirror-measure {
    position: absolute;
    width: 100%;
    height: 0;
    overflow: hidden;
    visibility: hidden
}

.CodeMirror-cursor {
    position: absolute;
    pointer-events: none
}

.CodeMirror-measure pre {
    position: static
}

div.CodeMirror-cursors {
    visibility: hidden;
    position: relative;
    z-index: 3
}

.CodeMirror-focused div.CodeMirror-cursors,div.CodeMirror-dragcursors {
    visibility: visible
}

.CodeMirror-selected {
    background: #d9d9d9
}

.CodeMirror-focused .CodeMirror-selected {
    background: #d7d4f0
}

.CodeMirror-crosshair {
    cursor: crosshair
}

.CodeMirror-line::selection,.CodeMirror-line>span::selection,.CodeMirror-line>span>span::selection {
    background: #d7d4f0
}

.CodeMirror-line::-moz-selection,.CodeMirror-line>span::-moz-selection,.CodeMirror-line>span>span::-moz-selection {
    background: #d7d4f0
}

.cm-searching {
    background-color: #ffa;
    background-color: rgba(255,255,0,.4)
}

.cm-force-border {
    padding-right: .1px
}

@media print {
    .CodeMirror div.CodeMirror-cursors {
        visibility: hidden
    }
}

.cm-tab-wrap-hack:after {
    content: ""
}

span.CodeMirror-selectedtext {
    background: none
}

.cm-s-material.CodeMirror {
    background-color: #263238;
    color: #eff
}

.cm-s-material .CodeMirror-gutters {
    background: #263238;
    color: #546e7a;
    border: none
}

.cm-s-material .CodeMirror-guttermarker,.cm-s-material .CodeMirror-guttermarker-subtle,.cm-s-material .CodeMirror-linenumber {
    color: #546e7a
}

.cm-s-material .CodeMirror-cursor {
    border-left: 1px solid #fc0
}

.cm-s-material.CodeMirror-focused div.CodeMirror-selected,.cm-s-material div.CodeMirror-selected {
    background: rgba(128,203,196,.2)
}

.cm-s-material .CodeMirror-line::selection,.cm-s-material .CodeMirror-line>span::selection,.cm-s-material .CodeMirror-line>span>span::selection {
    background: rgba(128,203,196,.2)
}

.cm-s-material .CodeMirror-line::-moz-selection,.cm-s-material .CodeMirror-line>span::-moz-selection,.cm-s-material .CodeMirror-line>span>span::-moz-selection {
    background: rgba(128,203,196,.2)
}

.cm-s-material .CodeMirror-activeline-background {
    background: rgba(0,0,0,.5)
}

.cm-s-material .cm-keyword {
    color: #c792ea
}

.cm-s-material .cm-operator {
    color: #89ddff
}

.cm-s-material .cm-variable-2 {
    color: #eff
}

.cm-s-material .cm-type,.cm-s-material .cm-variable-3 {
    color: #f07178
}

.cm-s-material .cm-builtin {
    color: #ffcb6b
}

.cm-s-material .cm-atom {
    color: #f78c6c
}

.cm-s-material .cm-number {
    color: #ff5370
}

.cm-s-material .cm-def {
    color: #82aaff
}

.cm-s-material .cm-string {
    color: #c3e88d
}

.cm-s-material .cm-string-2 {
    color: #f07178
}

.cm-s-material .cm-comment {
    color: #546e7a
}

.cm-s-material .cm-variable {
    color: #f07178
}

.cm-s-material .cm-tag {
    color: #ff5370
}

.cm-s-material .cm-meta {
    color: #ffcb6b
}

.cm-s-material .cm-attribute,.cm-s-material .cm-property {
    color: #c792ea
}

.cm-s-material .cm-qualifier,.cm-s-material .cm-type,.cm-s-material .cm-variable-3 {
    color: #decb6b
}

.cm-s-material .cm-error {
    color: #fff;
    background-color: #ff5370
}

.cm-s-material .CodeMirror-matchingbracket {
    text-decoration: underline;
    color: #fff!important
}

.CodeMirror-merge {
    position: relative;
    border: 1px solid #ddd;
    white-space: pre
}

.CodeMirror-merge,.CodeMirror-merge .CodeMirror {
    height: 350px
}

.CodeMirror-merge-2pane .CodeMirror-merge-pane {
    width: 47%
}

.CodeMirror-merge-2pane .CodeMirror-merge-gap {
    width: 6%
}

.CodeMirror-merge-3pane .CodeMirror-merge-pane {
    width: 31%
}

.CodeMirror-merge-3pane .CodeMirror-merge-gap {
    width: 3.5%
}

.CodeMirror-merge-pane {
    display: inline-block;
    white-space: normal;
    vertical-align: top
}

.CodeMirror-merge-pane-rightmost {
    position: absolute;
    right: 0;
    z-index: 1
}

.CodeMirror-merge-gap {
    z-index: 2;
    display: inline-block;
    height: 100%;
    -moz-box-sizing: border-box;
    box-sizing: border-box;
    overflow: hidden;
    border-left: 1px solid #ddd;
    border-right: 1px solid #ddd;
    position: relative;
    background: #f8f8f8
}

.CodeMirror-merge-scrolllock-wrap {
    position: absolute;
    bottom: 0;
    left: 50%
}

.CodeMirror-merge-scrolllock {
    position: relative;
    left: -50%;
    cursor: pointer;
    color: #555;
    line-height: 1
}

.CodeMirror-merge-scrolllock:after {
    content: "\21db\00a0\00a0\21da"
}

.CodeMirror-merge-scrolllock.CodeMirror-merge-scrolllock-enabled:after {
    content: "\21db\21da"
}

.CodeMirror-merge-copybuttons-left,.CodeMirror-merge-copybuttons-right {
    position: absolute;
    left: 0;
    top: 0;
    right: 0;
    bottom: 0;
    line-height: 1
}

.CodeMirror-merge-copy {
    z-index: 3
}

.CodeMirror-merge-copy,.CodeMirror-merge-copy-reverse {
    position: absolute;
    cursor: pointer;
    color: #44c
}

.CodeMirror-merge-copybuttons-left .CodeMirror-merge-copy {
    left: 2px
}

.CodeMirror-merge-copybuttons-right .CodeMirror-merge-copy {
    right: 2px
}

.CodeMirror-merge-l-inserted,.CodeMirror-merge-r-inserted {
    background-image: url(data:image/png;base64,iVBORw0KGgoAAAANSUhEUgAAAAMAAAACCAYAAACddGYaAAAAGUlEQVQI12MwuCXy3+CWyH8GBgYGJgYkAABZbAQ9ELXurwAAAABJRU5ErkJggg==);
    background-position: 0 100%;
    background-repeat: repeat-x
}

.CodeMirror-merge-l-deleted,.CodeMirror-merge-r-deleted {
    background-image: url(data:image/png;base64,iVBORw0KGgoAAAANSUhEUgAAAAMAAAACCAYAAACddGYaAAAAGUlEQVQI12M4Kyb2/6yY2H8GBgYGJgYkAABURgPz6Ks7wQAAAABJRU5ErkJggg==);
    background-position: 0 100%;
    background-repeat: repeat-x
}

.CodeMirror-merge-r-chunk {
    background: #ffffe0
}

.CodeMirror-merge-r-chunk-start {
    border-top: 1px solid #ee8
}

.CodeMirror-merge-r-chunk-end {
    border-bottom: 1px solid #ee8
}

.CodeMirror-merge-r-connect {
    fill: #ffffe0;
    stroke: #ee8;
    stroke-width: 1px
}

.CodeMirror-merge-l-chunk {
    background: #eef
}

.CodeMirror-merge-l-chunk-start {
    border-top: 1px solid #88e
}

.CodeMirror-merge-l-chunk-end {
    border-bottom: 1px solid #88e
}

.CodeMirror-merge-l-connect {
    fill: #eef;
    stroke: #88e;
    stroke-width: 1px
}

.CodeMirror-merge-l-chunk.CodeMirror-merge-r-chunk {
    background: #dfd
}

.CodeMirror-merge-l-chunk-start.CodeMirror-merge-r-chunk-start {
    border-top: 1px solid #4e4
}

.CodeMirror-merge-l-chunk-end.CodeMirror-merge-r-chunk-end {
    border-bottom: 1px solid #4e4
}

.CodeMirror-merge-collapsed-widget:before {
    content: "(...)"
}

.CodeMirror-merge-collapsed-widget {
    cursor: pointer;
    color: #88b;
    background: #eef;
    border: 1px solid #ddf;
    font-size: 90%;
    padding: 0 3px;
    border-radius: 4px
}

.CodeMirror-merge-collapsed-line .CodeMirror-gutter-elt {
    display: none
}

/*!
 * Bootstrap v3.4.1 (https://getbootstrap.com/)
 * Copyright 2011-2019 Twitter, Inc.
 * Licensed under MIT (https://github.com/twbs/bootstrap/blob/master/LICENSE)
 */
/*! normalize.css v3.0.3 | MIT License | github.com/necolas/normalize.css */
html {
    font-family: sans-serif;
    -ms-text-size-adjust: 100%;
    -webkit-text-size-adjust: 100%
}

body {
    margin: 0
}

audio:not([controls]) {
    display: none;
    height: 0
}

[hidden],template {
    display: none
}

a:active,a:hover {
    outline: 0
}

abbr[title] {
    border-bottom: none;
    text-decoration: underline;
    -webkit-text-decoration: underline dotted;
    -moz-text-decoration: underline dotted;
    text-decoration: underline dotted
}

dfn {
    font-style: italic
}

h1 {
    font-size: 2em;
    margin: .67em 0
}

mark {
    background: #ff0;
    color: #000
}

small {
    font-size: 80%
}

img {
    border: 0
}

svg:not(:root) {
    overflow: hidden
}

figure {
    margin: 1em 40px
}

hr {
    -webkit-box-sizing: content-box;
    -moz-box-sizing: content-box;
    box-sizing: content-box;
    height: 0
}

pre {
    overflow: auto
}

code,kbd,pre,samp {
    font-family: monospace,monospace;
    font-size: 1em
}

button,input,optgroup,select,textarea {
    color: inherit;
    font: inherit;
    margin: 0
}

button {
    overflow: visible
}

button,select {
    text-transform: none
}

button,html input[type=button],input[type=reset],input[type=submit] {
    -webkit-appearance: button;
    cursor: pointer
}

button[disabled],html input[disabled] {
    cursor: default
}

input {
    line-height: normal
}

input[type=checkbox],input[type=radio] {
    -webkit-box-sizing: border-box;
    -moz-box-sizing: border-box;
    box-sizing: border-box;
    padding: 0
}

input[type=number]::-webkit-inner-spin-button,input[type=number]::-webkit-outer-spin-button {
    height: auto
}

input[type=search] {
    -webkit-appearance: textfield;
    -webkit-box-sizing: content-box;
    -moz-box-sizing: content-box;
    box-sizing: content-box
}

input[type=search]::-webkit-search-cancel-button,input[type=search]::-webkit-search-decoration {
    -webkit-appearance: none
}

fieldset {
    border: 1px solid silver;
    margin: 0 2px;
    padding: .35em .625em .75em
}

optgroup {
    font-weight: 700
}

/*! Source: https://github.com/h5bp/html5-boilerplate/blob/master/src/css/main.css */
@media print {
    *,:after,:before {
        color: #000!important;
        text-shadow: none!important;
        background: 0 0!important;
        -webkit-box-shadow: none!important;
        box-shadow: none!important
    }

    a,a:visited {
        text-decoration: underline
    }

    a[href]:after {
        content: " (" attr(href) ")"
    }

    abbr[title]:after {
        content: " (" attr(title) ")"
    }

    a[href^="#"]:after,a[href^="javascript:"]:after {
        content: ""
    }

    blockquote,pre {
        border: 1px solid #999;
        page-break-inside: avoid
    }

    thead {
        display: table-header-group
    }

    img,tr {
        page-break-inside: avoid
    }

    img {
        max-width: 100%!important
    }

    h2,h3,p {
        orphans: 3;
        widows: 3
    }

    h2,h3 {
        page-break-after: avoid
    }

    .navbar {
        display: none
    }

    .btn>.caret,.dropup>.btn>.caret {
        border-top-color: #000!important
    }

    .label {
        border: 1px solid #000
    }

    .table {
        border-collapse: collapse!important
    }

    .table td,.table th {
        background-color: #fff!important
    }

    .table-bordered td,.table-bordered th {
        border: 1px solid #ddd!important
    }
}

@font-face {
    font-family: Glyphicons Halflings;
    src: url(//console-static.huaweicloud.com/static/cce/20.8.18/img/glyphicons-halflings-regular.5be1347c682810f199c7f486f40c5974.eot);
    src: url(//console-static.huaweicloud.com/static/cce/20.8.18/img/glyphicons-halflings-regular.5be1347c682810f199c7f486f40c5974.eot?#iefix) format("embedded-opentype"),url(//console-static.huaweicloud.com/static/cce/20.8.18/img/glyphicons-halflings-regular.be810be3a3e14c682a257d6eff341fe4.woff2) format("woff2"),url(//console-static.huaweicloud.com/static/cce/20.8.18/img/glyphicons-halflings-regular.82b1212e45a2bc35dd731913b27ad813.woff) format("woff"),url(//console-static.huaweicloud.com/static/cce/20.8.18/img/glyphicons-halflings-regular.4692b9ec53fd5972caa2f2372ae20d16.ttf) format("truetype"),url(//console-static.huaweicloud.com/static/cce/20.8.18/img/glyphicons-halflings-regular.060b2710bdbbe3dfe48b58d59bd5f1fb.svg#glyphicons_halflingsregular) format("svg")
}

.glyphicon {
    position: relative;
    top: 1px;
    display: inline-block;
    font-family: Glyphicons Halflings;
    font-style: normal;
    font-weight: 400;
    line-height: 1;
    -webkit-font-smoothing: antialiased;
    -moz-osx-font-smoothing: grayscale
}

.glyphicon-asterisk:before {
    content: "\002a"
}

.glyphicon-plus:before {
    content: "\002b"
}

.glyphicon-eur:before,.glyphicon-euro:before {
    content: "\20ac"
}

.glyphicon-minus:before {
    content: "\2212"
}

.glyphicon-cloud:before {
    content: "\2601"
}

.glyphicon-envelope:before {
    content: "\2709"
}

.glyphicon-pencil:before {
    content: "\270f"
}

.glyphicon-glass:before {
    content: "\e001"
}

.glyphicon-music:before {
    content: "\e002"
}

.glyphicon-search:before {
    content: "\e003"
}

.glyphicon-heart:before {
    content: "\e005"
}

.glyphicon-star:before {
    content: "\e006"
}

.glyphicon-star-empty:before {
    content: "\e007"
}

.glyphicon-user:before {
    content: "\e008"
}

.glyphicon-film:before {
    content: "\e009"
}

.glyphicon-th-large:before {
    content: "\e010"
}

.glyphicon-th:before {
    content: "\e011"
}

.glyphicon-th-list:before {
    content: "\e012"
}

.glyphicon-ok:before {
    content: "\e013"
}

.glyphicon-remove:before {
    content: "\e014"
}

.glyphicon-zoom-in:before {
    content: "\e015"
}

.glyphicon-zoom-out:before {
    content: "\e016"
}

.glyphicon-off:before {
    content: "\e017"
}

.glyphicon-signal:before {
    content: "\e018"
}

.glyphicon-cog:before {
    content: "\e019"
}

.glyphicon-trash:before {
    content: "\e020"
}

.glyphicon-home:before {
    content: "\e021"
}

.glyphicon-file:before {
    content: "\e022"
}

.glyphicon-time:before {
    content: "\e023"
}

.glyphicon-road:before {
    content: "\e024"
}

.glyphicon-download-alt:before {
    content: "\e025"
}

.glyphicon-download:before {
    content: "\e026"
}

.glyphicon-upload:before {
    content: "\e027"
}

.glyphicon-inbox:before {
    content: "\e028"
}

.glyphicon-play-circle:before {
    content: "\e029"
}

.glyphicon-repeat:before {
    content: "\e030"
}

.glyphicon-refresh:before {
    content: "\e031"
}

.glyphicon-list-alt:before {
    content: "\e032"
}

.glyphicon-lock:before {
    content: "\e033"
}

.glyphicon-flag:before {
    content: "\e034"
}

.glyphicon-headphones:before {
    content: "\e035"
}

.glyphicon-volume-off:before {
    content: "\e036"
}

.glyphicon-volume-down:before {
    content: "\e037"
}

.glyphicon-volume-up:before {
    content: "\e038"
}

.glyphicon-qrcode:before {
    content: "\e039"
}

.glyphicon-barcode:before {
    content: "\e040"
}

.glyphicon-tag:before {
    content: "\e041"
}

.glyphicon-tags:before {
    content: "\e042"
}

.glyphicon-book:before {
    content: "\e043"
}

.glyphicon-bookmark:before {
    content: "\e044"
}

.glyphicon-print:before {
    content: "\e045"
}

.glyphicon-camera:before {
    content: "\e046"
}

.glyphicon-font:before {
    content: "\e047"
}

.glyphicon-bold:before {
    content: "\e048"
}

.glyphicon-italic:before {
    content: "\e049"
}

.glyphicon-text-height:before {
    content: "\e050"
}

.glyphicon-text-width:before {
    content: "\e051"
}

.glyphicon-align-left:before {
    content: "\e052"
}

.glyphicon-align-center:before {
    content: "\e053"
}

.glyphicon-align-right:before {
    content: "\e054"
}

.glyphicon-align-justify:before {
    content: "\e055"
}

.glyphicon-list:before {
    content: "\e056"
}

.glyphicon-indent-left:before {
    content: "\e057"
}

.glyphicon-indent-right:before {
    content: "\e058"
}

.glyphicon-facetime-video:before {
    content: "\e059"
}

.glyphicon-picture:before {
    content: "\e060"
}

.glyphicon-map-marker:before {
    content: "\e062"
}

.glyphicon-adjust:before {
    content: "\e063"
}

.glyphicon-tint:before {
    content: "\e064"
}

.glyphicon-edit:before {
    content: "\e065"
}

.glyphicon-share:before {
    content: "\e066"
}

.glyphicon-check:before {
    content: "\e067"
}

.glyphicon-move:before {
    content: "\e068"
}

.glyphicon-step-backward:before {
    content: "\e069"
}

.glyphicon-fast-backward:before {
    content: "\e070"
}

.glyphicon-backward:before {
    content: "\e071"
}

.glyphicon-play:before {
    content: "\e072"
}

.glyphicon-pause:before {
    content: "\e073"
}

.glyphicon-stop:before {
    content: "\e074"
}

.glyphicon-forward:before {
    content: "\e075"
}

.glyphicon-fast-forward:before {
    content: "\e076"
}

.glyphicon-step-forward:before {
    content: "\e077"
}

.glyphicon-eject:before {
    content: "\e078"
}

.glyphicon-chevron-left:before {
    content: "\e079"
}

.glyphicon-chevron-right:before {
    content: "\e080"
}

.glyphicon-plus-sign:before {
    content: "\e081"
}

.glyphicon-minus-sign:before {
    content: "\e082"
}

.glyphicon-remove-sign:before {
    content: "\e083"
}

.glyphicon-ok-sign:before {
    content: "\e084"
}

.glyphicon-question-sign:before {
    content: "\e085"
}

.glyphicon-info-sign:before {
    content: "\e086"
}

.glyphicon-screenshot:before {
    content: "\e087"
}

.glyphicon-remove-circle:before {
    content: "\e088"
}

.glyphicon-ok-circle:before {
    content: "\e089"
}

.glyphicon-ban-circle:before {
    content: "\e090"
}

.glyphicon-arrow-left:before {
    content: "\e091"
}

.glyphicon-arrow-right:before {
    content: "\e092"
}

.glyphicon-arrow-up:before {
    content: "\e093"
}

.glyphicon-arrow-down:before {
    content: "\e094"
}

.glyphicon-share-alt:before {
    content: "\e095"
}

.glyphicon-resize-full:before {
    content: "\e096"
}

.glyphicon-resize-small:before {
    content: "\e097"
}

.glyphicon-exclamation-sign:before {
    content: "\e101"
}

.glyphicon-gift:before {
    content: "\e102"
}

.glyphicon-leaf:before {
    content: "\e103"
}

.glyphicon-fire:before {
    content: "\e104"
}

.glyphicon-eye-open:before {
    content: "\e105"
}

.glyphicon-eye-close:before {
    content: "\e106"
}

.glyphicon-warning-sign:before {
    content: "\e107"
}

.glyphicon-plane:before {
    content: "\e108"
}

.glyphicon-calendar:before {
    content: "\e109"
}

.glyphicon-random:before {
    content: "\e110"
}

.glyphicon-comment:before {
    content: "\e111"
}

.glyphicon-magnet:before {
    content: "\e112"
}

.glyphicon-chevron-up:before {
    content: "\e113"
}

.glyphicon-chevron-down:before {
    content: "\e114"
}

.glyphicon-retweet:before {
    content: "\e115"
}

.glyphicon-shopping-cart:before {
    content: "\e116"
}

.glyphicon-folder-close:before {
    content: "\e117"
}

.glyphicon-folder-open:before {
    content: "\e118"
}

.glyphicon-resize-vertical:before {
    content: "\e119"
}

.glyphicon-resize-horizontal:before {
    content: "\e120"
}

.glyphicon-hdd:before {
    content: "\e121"
}

.glyphicon-bullhorn:before {
    content: "\e122"
}

.glyphicon-bell:before {
    content: "\e123"
}

.glyphicon-certificate:before {
    content: "\e124"
}

.glyphicon-thumbs-up:before {
    content: "\e125"
}

.glyphicon-thumbs-down:before {
    content: "\e126"
}

.glyphicon-hand-right:before {
    content: "\e127"
}

.glyphicon-hand-left:before {
    content: "\e128"
}

.glyphicon-hand-up:before {
    content: "\e129"
}

.glyphicon-hand-down:before {
    content: "\e130"
}

.glyphicon-circle-arrow-right:before {
    content: "\e131"
}

.glyphicon-circle-arrow-left:before {
    content: "\e132"
}

.glyphicon-circle-arrow-up:before {
    content: "\e133"
}

.glyphicon-circle-arrow-down:before {
    content: "\e134"
}

.glyphicon-globe:before {
    content: "\e135"
}

.glyphicon-wrench:before {
    content: "\e136"
}

.glyphicon-tasks:before {
    content: "\e137"
}

.glyphicon-filter:before {
    content: "\e138"
}

.glyphicon-briefcase:before {
    content: "\e139"
}

.glyphicon-fullscreen:before {
    content: "\e140"
}

.glyphicon-dashboard:before {
    content: "\e141"
}

.glyphicon-paperclip:before {
    content: "\e142"
}

.glyphicon-heart-empty:before {
    content: "\e143"
}

.glyphicon-link:before {
    content: "\e144"
}

.glyphicon-phone:before {
    content: "\e145"
}

.glyphicon-pushpin:before {
    content: "\e146"
}

.glyphicon-usd:before {
    content: "\e148"
}

.glyphicon-gbp:before {
    content: "\e149"
}

.glyphicon-sort:before {
    content: "\e150"
}

.glyphicon-sort-by-alphabet:before {
    content: "\e151"
}

.glyphicon-sort-by-alphabet-alt:before {
    content: "\e152"
}

.glyphicon-sort-by-order:before {
    content: "\e153"
}

.glyphicon-sort-by-order-alt:before {
    content: "\e154"
}

.glyphicon-sort-by-attributes:before {
    content: "\e155"
}

.glyphicon-sort-by-attributes-alt:before {
    content: "\e156"
}

.glyphicon-unchecked:before {
    content: "\e157"
}

.glyphicon-expand:before {
    content: "\e158"
}

.glyphicon-collapse-down:before {
    content: "\e159"
}

.glyphicon-collapse-up:before {
    content: "\e160"
}

.glyphicon-log-in:before {
    content: "\e161"
}

.glyphicon-flash:before {
    content: "\e162"
}

.glyphicon-log-out:before {
    content: "\e163"
}

.glyphicon-new-window:before {
    content: "\e164"
}

.glyphicon-record:before {
    content: "\e165"
}

.glyphicon-save:before {
    content: "\e166"
}

.glyphicon-open:before {
    content: "\e167"
}

.glyphicon-saved:before {
    content: "\e168"
}

.glyphicon-import:before {
    content: "\e169"
}

.glyphicon-export:before {
    content: "\e170"
}

.glyphicon-send:before {
    content: "\e171"
}

.glyphicon-floppy-disk:before {
    content: "\e172"
}

.glyphicon-floppy-saved:before {
    content: "\e173"
}

.glyphicon-floppy-remove:before {
    content: "\e174"
}

.glyphicon-floppy-save:before {
    content: "\e175"
}

.glyphicon-floppy-open:before {
    content: "\e176"
}

.glyphicon-credit-card:before {
    content: "\e177"
}

.glyphicon-transfer:before {
    content: "\e178"
}

.glyphicon-cutlery:before {
    content: "\e179"
}

.glyphicon-header:before {
    content: "\e180"
}

.glyphicon-compressed:before {
    content: "\e181"
}

.glyphicon-earphone:before {
    content: "\e182"
}

.glyphicon-phone-alt:before {
    content: "\e183"
}

.glyphicon-tower:before {
    content: "\e184"
}

.glyphicon-stats:before {
    content: "\e185"
}

.glyphicon-sd-video:before {
    content: "\e186"
}

.glyphicon-hd-video:before {
    content: "\e187"
}

.glyphicon-subtitles:before {
    content: "\e188"
}

.glyphicon-sound-stereo:before {
    content: "\e189"
}

.glyphicon-sound-dolby:before {
    content: "\e190"
}

.glyphicon-sound-5-1:before {
    content: "\e191"
}

.glyphicon-sound-6-1:before {
    content: "\e192"
}

.glyphicon-sound-7-1:before {
    content: "\e193"
}

.glyphicon-copyright-mark:before {
    content: "\e194"
}

.glyphicon-registration-mark:before {
    content: "\e195"
}

.glyphicon-cloud-download:before {
    content: "\e197"
}

.glyphicon-cloud-upload:before {
    content: "\e198"
}

.glyphicon-tree-conifer:before {
    content: "\e199"
}

.glyphicon-tree-deciduous:before {
    content: "\e200"
}

.glyphicon-cd:before {
    content: "\e201"
}

.glyphicon-save-file:before {
    content: "\e202"
}

.glyphicon-open-file:before {
    content: "\e203"
}

.glyphicon-level-up:before {
    content: "\e204"
}

.glyphicon-copy:before {
    content: "\e205"
}

.glyphicon-paste:before {
    content: "\e206"
}

.glyphicon-alert:before {
    content: "\e209"
}

.glyphicon-equalizer:before {
    content: "\e210"
}

.glyphicon-king:before {
    content: "\e211"
}

.glyphicon-queen:before {
    content: "\e212"
}

.glyphicon-pawn:before {
    content: "\e213"
}

.glyphicon-bishop:before {
    content: "\e214"
}

.glyphicon-knight:before {
    content: "\e215"
}

.glyphicon-baby-formula:before {
    content: "\e216"
}

.glyphicon-tent:before {
    content: "\26fa"
}

.glyphicon-blackboard:before {
    content: "\e218"
}

.glyphicon-bed:before {
    content: "\e219"
}

.glyphicon-apple:before {
    content: "\f8ff"
}

.glyphicon-erase:before {
    content: "\e221"
}

.glyphicon-hourglass:before {
    content: "\231b"
}

.glyphicon-lamp:before {
    content: "\e223"
}

.glyphicon-duplicate:before {
    content: "\e224"
}

.glyphicon-piggy-bank:before {
    content: "\e225"
}

.glyphicon-scissors:before {
    content: "\e226"
}

.glyphicon-bitcoin:before,.glyphicon-btc:before,.glyphicon-xbt:before {
    content: "\e227"
}

.glyphicon-jpy:before,.glyphicon-yen:before {
    content: "\00a5"
}

.glyphicon-rub:before,.glyphicon-ruble:before {
    content: "\20bd"
}

.glyphicon-scale:before {
    content: "\e230"
}

.glyphicon-ice-lolly:before {
    content: "\e231"
}

.glyphicon-ice-lolly-tasted:before {
    content: "\e232"
}

.glyphicon-education:before {
    content: "\e233"
}

.glyphicon-option-horizontal:before {
    content: "\e234"
}

.glyphicon-option-vertical:before {
    content: "\e235"
}

.glyphicon-menu-hamburger:before {
    content: "\e236"
}

.glyphicon-modal-window:before {
    content: "\e237"
}

.glyphicon-oil:before {
    content: "\e238"
}

.glyphicon-grain:before {
    content: "\e239"
}

.glyphicon-sunglasses:before {
    content: "\e240"
}

.glyphicon-text-size:before {
    content: "\e241"
}

.glyphicon-text-color:before {
    content: "\e242"
}

.glyphicon-text-background:before {
    content: "\e243"
}

.glyphicon-object-align-top:before {
    content: "\e244"
}

.glyphicon-object-align-bottom:before {
    content: "\e245"
}

.glyphicon-object-align-horizontal:before {
    content: "\e246"
}

.glyphicon-object-align-left:before {
    content: "\e247"
}

.glyphicon-object-align-vertical:before {
    content: "\e248"
}

.glyphicon-object-align-right:before {
    content: "\e249"
}

.glyphicon-triangle-right:before {
    content: "\e250"
}

.glyphicon-triangle-left:before {
    content: "\e251"
}

.glyphicon-triangle-bottom:before {
    content: "\e252"
}

.glyphicon-triangle-top:before {
    content: "\e253"
}

.glyphicon-console:before {
    content: "\e254"
}

.glyphicon-superscript:before {
    content: "\e255"
}

.glyphicon-subscript:before {
    content: "\e256"
}

.glyphicon-menu-left:before {
    content: "\e257"
}

.glyphicon-menu-right:before {
    content: "\e258"
}

.glyphicon-menu-down:before {
    content: "\e259"
}

.glyphicon-menu-up:before {
    content: "\e260"
}

*,:after,:before {
    -webkit-box-sizing: border-box;
    -moz-box-sizing: border-box;
    box-sizing: border-box
}

html {
    font-size: 10px;
    -webkit-tap-highlight-color: rgba(0,0,0,0)
}

body {
    font-family: Helvetica Neue,Helvetica,Arial,sans-serif;
    font-size: 14px;
    line-height: 1.42857143;
    color: #333
}

button,input,select,textarea {
    font-size: inherit;
    line-height: inherit
}

a {
    color: #337ab7;
    text-decoration: none
}

a:focus,a:hover {
    color: #23527c;
    text-decoration: underline
}

a:focus {
    outline: 5px auto -webkit-focus-ring-color;
    outline-offset: -2px
}

figure {
    margin: 0
}

img {
    vertical-align: middle
}

.carousel-inner>.item>a>img,.carousel-inner>.item>img,.img-responsive,.thumbnail>img,.thumbnail a>img {
    display: block;
    max-width: 100%;
    height: auto
}

.img-rounded {
    border-radius: 6px
}

.img-thumbnail {
    padding: 4px;
    line-height: 1.42857143;
    background-color: #fff;
    border: 1px solid #ddd;
    border-radius: 4px;
    -webkit-transition: all .2s ease-in-out;
    -o-transition: all .2s ease-in-out;
    transition: all .2s ease-in-out;
    display: inline-block;
    max-width: 100%;
    height: auto
}

.img-circle {
    border-radius: 50%
}

hr {
    margin-top: 20px;
    margin-bottom: 20px;
    border: 0;
    border-top: 1px solid #eee
}

.sr-only {
    position: absolute;
    width: 1px;
    height: 1px;
    padding: 0;
    margin: -1px;
    overflow: hidden;
    clip: rect(0,0,0,0);
    border: 0
}

.sr-only-focusable:active,.sr-only-focusable:focus {
    position: static;
    width: auto;
    height: auto;
    margin: 0;
    overflow: visible;
    clip: auto
}

[role=button] {
    cursor: pointer
}

.h1,.h2,.h3,.h4,.h5,.h6,h1,h2,h3,h4,h5,h6 {
    font-family: inherit;
    font-weight: 500;
    line-height: 1.1;
    color: inherit
}

.h1 .small,.h1 small,.h2 .small,.h2 small,.h3 .small,.h3 small,.h4 .small,.h4 small,.h5 .small,.h5 small,.h6 .small,.h6 small,h1 .small,h1 small,h2 .small,h2 small,h3 .small,h3 small,h4 .small,h4 small,h5 .small,h5 small,h6 .small,h6 small {
    font-weight: 400;
    line-height: 1;
    color: #777
}

.h1,.h2,.h3,h1,h2,h3 {
    margin-top: 20px;
    margin-bottom: 10px
}

.h1 .small,.h1 small,.h2 .small,.h2 small,.h3 .small,.h3 small,h1 .small,h1 small,h2 .small,h2 small,h3 .small,h3 small {
    font-size: 65%
}

.h4,.h5,.h6,h4,h5,h6 {
    margin-top: 10px;
    margin-bottom: 10px
}

.h4 .small,.h4 small,.h5 .small,.h5 small,.h6 .small,.h6 small,h4 .small,h4 small,h5 .small,h5 small,h6 .small,h6 small {
    font-size: 75%
}

.h1,h1 {
    font-size: 36px
}

.h2,h2 {
    font-size: 30px
}

.h3,h3 {
    font-size: 24px
}

.h4,h4 {
    font-size: 18px
}

.h5,h5 {
    font-size: 14px
}

.h6,h6 {
    font-size: 12px
}

p {
    margin: 0 0 10px
}

.lead {
    margin-bottom: 20px;
    font-size: 16px;
    font-weight: 300;
    line-height: 1.4
}

@media (min-width: 768px) {
    .lead {
        font-size:21px
    }
}

.small,small {
    font-size: 85%
}

.mark,mark {
    padding: .2em;
    background-color: #fcf8e3
}

.text-left {
    text-align: left
}

.text-right {
    text-align: right
}

.text-center {
    text-align: center
}

.text-justify {
    text-align: justify
}

.text-nowrap {
    white-space: nowrap
}

.text-lowercase {
    text-transform: lowercase
}

.text-uppercase {
    text-transform: uppercase
}

.text-capitalize {
    text-transform: capitalize
}

.text-muted {
    color: #777
}

.text-primary {
    color: #337ab7
}

a.text-primary:focus,a.text-primary:hover {
    color: #286090
}

.text-success {
    color: #3c763d
}

a.text-success:focus,a.text-success:hover {
    color: #2b542c
}

.text-info {
    color: #31708f
}

a.text-info:focus,a.text-info:hover {
    color: #245269
}

.text-warning {
    color: #8a6d3b
}

a.text-warning:focus,a.text-warning:hover {
    color: #66512c
}

.text-danger {
    color: #a94442
}

a.text-danger:focus,a.text-danger:hover {
    color: #843534
}

.bg-primary {
    color: #fff;
    background-color: #337ab7
}

a.bg-primary:focus,a.bg-primary:hover {
    background-color: #286090
}

.bg-success {
    background-color: #dff0d8
}

a.bg-success:focus,a.bg-success:hover {
    background-color: #c1e2b3
}

.bg-info {
    background-color: #d9edf7
}

a.bg-info:focus,a.bg-info:hover {
    background-color: #afd9ee
}

.bg-warning {
    background-color: #fcf8e3
}

a.bg-warning:focus,a.bg-warning:hover {
    background-color: #f7ecb5
}

.bg-danger {
    background-color: #f2dede
}

a.bg-danger:focus,a.bg-danger:hover {
    background-color: #e4b9b9
}

.page-header {
    padding-bottom: 9px;
    margin: 40px 0 20px;
    border-bottom: 1px solid #eee
}

ol,ul {
    margin-top: 0;
    margin-bottom: 10px
}

ol ol,ol ul,ul ol,ul ul {
    margin-bottom: 0
}

.list-inline,.list-unstyled {
    padding-left: 0;
    list-style: none
}

.list-inline {
    margin-left: -5px
}

.list-inline>li {
    display: inline-block;
    padding-right: 5px;
    padding-left: 5px
}

dl {
    margin-top: 0;
    margin-bottom: 20px
}

dd,dt {
    line-height: 1.42857143
}

dt {
    font-weight: 700
}

dd {
    margin-left: 0
}

@media (min-width: 768px) {
    .dl-horizontal dt {
        float:left;
        width: 160px;
        clear: left;
        text-align: right;
        overflow: hidden;
        text-overflow: ellipsis;
        white-space: nowrap
    }

    .dl-horizontal dd {
        margin-left: 180px
    }
}

abbr[data-original-title],abbr[title] {
    cursor: help
}

.initialism {
    font-size: 90%;
    text-transform: uppercase
}

blockquote {
    padding: 10px 20px;
    margin: 0 0 20px;
    font-size: 17.5px;
    border-left: 5px solid #eee
}

blockquote ol:last-child,blockquote p:last-child,blockquote ul:last-child {
    margin-bottom: 0
}

blockquote .small,blockquote footer,blockquote small {
    display: block;
    font-size: 80%;
    line-height: 1.42857143;
    color: #777
}

blockquote .small:before,blockquote footer:before,blockquote small:before {
    content: "\2014 \00A0"
}

.blockquote-reverse,blockquote.pull-right {
    padding-right: 15px;
    padding-left: 0;
    text-align: right;
    border-right: 5px solid #eee;
    border-left: 0
}

.blockquote-reverse .small:before,.blockquote-reverse footer:before,.blockquote-reverse small:before,blockquote.pull-right .small:before,blockquote.pull-right footer:before,blockquote.pull-right small:before {
    content: ""
}

.blockquote-reverse .small:after,.blockquote-reverse footer:after,.blockquote-reverse small:after,blockquote.pull-right .small:after,blockquote.pull-right footer:after,blockquote.pull-right small:after {
    content: "\00A0 \2014"
}

address {
    margin-bottom: 20px;
    font-style: normal;
    line-height: 1.42857143
}

code,kbd,pre,samp {
    font-family: Menlo,Monaco,Consolas,Courier New,monospace
}

code {
    color: #c7254e;
    background-color: #f9f2f4;
    border-radius: 4px
}

code,kbd {
    padding: 2px 4px;
    font-size: 90%
}

kbd {
    color: #fff;
    background-color: #333;
    border-radius: 3px;
    -webkit-box-shadow: inset 0 -1px 0 rgba(0,0,0,.25);
    box-shadow: inset 0 -1px 0 rgba(0,0,0,.25)
}

kbd kbd {
    padding: 0;
    font-size: 100%;
    font-weight: 700;
    -webkit-box-shadow: none;
    box-shadow: none
}

pre {
    display: block;
    padding: 9.5px;
    margin: 0 0 10px;
    font-size: 13px;
    line-height: 1.42857143;
    color: #333;
    word-break: break-all;
    word-wrap: break-word;
    background-color: #f5f5f5;
    border: 1px solid #ccc;
    border-radius: 4px
}

pre code {
    padding: 0;
    font-size: inherit;
    color: inherit;
    white-space: pre-wrap;
    background-color: transparent;
    border-radius: 0
}

.pre-scrollable {
    max-height: 340px;
    overflow-y: scroll
}

.container {
    padding-right: 15px;
    padding-left: 15px;
    margin-right: auto;
    margin-left: auto
}

@media (min-width: 768px) {
    .container {
        width:750px
    }
}

@media (min-width: 992px) {
    .container {
        width:970px
    }
}

@media (min-width: 1200px) {
    .container {
        width:1170px
    }
}

.container-fluid {
    padding-right: 15px;
    padding-left: 15px;
    margin-right: auto;
    margin-left: auto
}

.row {
    margin-right: -15px;
    margin-left: -15px
}

.row-no-gutters {
    margin-right: 0;
    margin-left: 0
}

.row-no-gutters [class*=col-] {
    padding-right: 0;
    padding-left: 0
}

.col-lg-1,.col-lg-2,.col-lg-3,.col-lg-4,.col-lg-5,.col-lg-6,.col-lg-7,.col-lg-8,.col-lg-9,.col-lg-10,.col-lg-11,.col-lg-12,.col-md-1,.col-md-2,.col-md-3,.col-md-4,.col-md-5,.col-md-6,.col-md-7,.col-md-8,.col-md-9,.col-md-10,.col-md-11,.col-md-12,.col-sm-1,.col-sm-2,.col-sm-3,.col-sm-4,.col-sm-5,.col-sm-6,.col-sm-7,.col-sm-8,.col-sm-9,.col-sm-10,.col-sm-11,.col-sm-12,.col-xs-1,.col-xs-2,.col-xs-3,.col-xs-4,.col-xs-5,.col-xs-6,.col-xs-7,.col-xs-8,.col-xs-9,.col-xs-10,.col-xs-11,.col-xs-12 {
    position: relative;
    min-height: 1px;
    padding-right: 15px;
    padding-left: 15px
}

.col-xs-1,.col-xs-2,.col-xs-3,.col-xs-4,.col-xs-5,.col-xs-6,.col-xs-7,.col-xs-8,.col-xs-9,.col-xs-10,.col-xs-11,.col-xs-12 {
    float: left
}

.col-xs-12 {
    width: 100%
}

.col-xs-11 {
    width: 91.66666667%
}

.col-xs-10 {
    width: 83.33333333%
}

.col-xs-9 {
    width: 75%
}

.col-xs-8 {
    width: 66.66666667%
}

.col-xs-7 {
    width: 58.33333333%
}

.col-xs-6 {
    width: 50%
}

.col-xs-5 {
    width: 41.66666667%
}

.col-xs-4 {
    width: 33.33333333%
}

.col-xs-3 {
    width: 25%
}

.col-xs-2 {
    width: 16.66666667%
}

.col-xs-1 {
    width: 8.33333333%
}

.col-xs-pull-12 {
    right: 100%
}

.col-xs-pull-11 {
    right: 91.66666667%
}

.col-xs-pull-10 {
    right: 83.33333333%
}

.col-xs-pull-9 {
    right: 75%
}

.col-xs-pull-8 {
    right: 66.66666667%
}

.col-xs-pull-7 {
    right: 58.33333333%
}

.col-xs-pull-6 {
    right: 50%
}

.col-xs-pull-5 {
    right: 41.66666667%
}

.col-xs-pull-4 {
    right: 33.33333333%
}

.col-xs-pull-3 {
    right: 25%
}

.col-xs-pull-2 {
    right: 16.66666667%
}

.col-xs-pull-1 {
    right: 8.33333333%
}

.col-xs-pull-0 {
    right: auto
}

.col-xs-push-12 {
    left: 100%
}

.col-xs-push-11 {
    left: 91.66666667%
}

.col-xs-push-10 {
    left: 83.33333333%
}

.col-xs-push-9 {
    left: 75%
}

.col-xs-push-8 {
    left: 66.66666667%
}

.col-xs-push-7 {
    left: 58.33333333%
}

.col-xs-push-6 {
    left: 50%
}

.col-xs-push-5 {
    left: 41.66666667%
}

.col-xs-push-4 {
    left: 33.33333333%
}

.col-xs-push-3 {
    left: 25%
}

.col-xs-push-2 {
    left: 16.66666667%
}

.col-xs-push-1 {
    left: 8.33333333%
}

.col-xs-push-0 {
    left: auto
}

.col-xs-offset-12 {
    margin-left: 100%
}

.col-xs-offset-11 {
    margin-left: 91.66666667%
}

.col-xs-offset-10 {
    margin-left: 83.33333333%
}

.col-xs-offset-9 {
    margin-left: 75%
}

.col-xs-offset-8 {
    margin-left: 66.66666667%
}

.col-xs-offset-7 {
    margin-left: 58.33333333%
}

.col-xs-offset-6 {
    margin-left: 50%
}

.col-xs-offset-5 {
    margin-left: 41.66666667%
}

.col-xs-offset-4 {
    margin-left: 33.33333333%
}

.col-xs-offset-3 {
    margin-left: 25%
}

.col-xs-offset-2 {
    margin-left: 16.66666667%
}

.col-xs-offset-1 {
    margin-left: 8.33333333%
}

.col-xs-offset-0 {
    margin-left: 0
}

@media (min-width: 768px) {
    .col-sm-1,.col-sm-2,.col-sm-3,.col-sm-4,.col-sm-5,.col-sm-6,.col-sm-7,.col-sm-8,.col-sm-9,.col-sm-10,.col-sm-11,.col-sm-12 {
        float:left
    }

    .col-sm-12 {
        width: 100%
    }

    .col-sm-11 {
        width: 91.66666667%
    }

    .col-sm-10 {
        width: 83.33333333%
    }

    .col-sm-9 {
        width: 75%
    }

    .col-sm-8 {
        width: 66.66666667%
    }

    .col-sm-7 {
        width: 58.33333333%
    }

    .col-sm-6 {
        width: 50%
    }

    .col-sm-5 {
        width: 41.66666667%
    }

    .col-sm-4 {
        width: 33.33333333%
    }

    .col-sm-3 {
        width: 25%
    }

    .col-sm-2 {
        width: 16.66666667%
    }

    .col-sm-1 {
        width: 8.33333333%
    }

    .col-sm-pull-12 {
        right: 100%
    }

    .col-sm-pull-11 {
        right: 91.66666667%
    }

    .col-sm-pull-10 {
        right: 83.33333333%
    }

    .col-sm-pull-9 {
        right: 75%
    }

    .col-sm-pull-8 {
        right: 66.66666667%
    }

    .col-sm-pull-7 {
        right: 58.33333333%
    }

    .col-sm-pull-6 {
        right: 50%
    }

    .col-sm-pull-5 {
        right: 41.66666667%
    }

    .col-sm-pull-4 {
        right: 33.33333333%
    }

    .col-sm-pull-3 {
        right: 25%
    }

    .col-sm-pull-2 {
        right: 16.66666667%
    }

    .col-sm-pull-1 {
        right: 8.33333333%
    }

    .col-sm-pull-0 {
        right: auto
    }

    .col-sm-push-12 {
        left: 100%
    }

    .col-sm-push-11 {
        left: 91.66666667%
    }

    .col-sm-push-10 {
        left: 83.33333333%
    }

    .col-sm-push-9 {
        left: 75%
    }

    .col-sm-push-8 {
        left: 66.66666667%
    }

    .col-sm-push-7 {
        left: 58.33333333%
    }

    .col-sm-push-6 {
        left: 50%
    }

    .col-sm-push-5 {
        left: 41.66666667%
    }

    .col-sm-push-4 {
        left: 33.33333333%
    }

    .col-sm-push-3 {
        left: 25%
    }

    .col-sm-push-2 {
        left: 16.66666667%
    }

    .col-sm-push-1 {
        left: 8.33333333%
    }

    .col-sm-push-0 {
        left: auto
    }

    .col-sm-offset-12 {
        margin-left: 100%
    }

    .col-sm-offset-11 {
        margin-left: 91.66666667%
    }

    .col-sm-offset-10 {
        margin-left: 83.33333333%
    }

    .col-sm-offset-9 {
        margin-left: 75%
    }

    .col-sm-offset-8 {
        margin-left: 66.66666667%
    }

    .col-sm-offset-7 {
        margin-left: 58.33333333%
    }

    .col-sm-offset-6 {
        margin-left: 50%
    }

    .col-sm-offset-5 {
        margin-left: 41.66666667%
    }

    .col-sm-offset-4 {
        margin-left: 33.33333333%
    }

    .col-sm-offset-3 {
        margin-left: 25%
    }

    .col-sm-offset-2 {
        margin-left: 16.66666667%
    }

    .col-sm-offset-1 {
        margin-left: 8.33333333%
    }

    .col-sm-offset-0 {
        margin-left: 0
    }
}

@media (min-width: 992px) {
    .col-md-1,.col-md-2,.col-md-3,.col-md-4,.col-md-5,.col-md-6,.col-md-7,.col-md-8,.col-md-9,.col-md-10,.col-md-11,.col-md-12 {
        float:left
    }

    .col-md-12 {
        width: 100%
    }

    .col-md-11 {
        width: 91.66666667%
    }

    .col-md-10 {
        width: 83.33333333%
    }

    .col-md-9 {
        width: 75%
    }

    .col-md-8 {
        width: 66.66666667%
    }

    .col-md-7 {
        width: 58.33333333%
    }

    .col-md-6 {
        width: 50%
    }

    .col-md-5 {
        width: 41.66666667%
    }

    .col-md-4 {
        width: 33.33333333%
    }

    .col-md-3 {
        width: 25%
    }

    .col-md-2 {
        width: 16.66666667%
    }

    .col-md-1 {
        width: 8.33333333%
    }

    .col-md-pull-12 {
        right: 100%
    }

    .col-md-pull-11 {
        right: 91.66666667%
    }

    .col-md-pull-10 {
        right: 83.33333333%
    }

    .col-md-pull-9 {
        right: 75%
    }

    .col-md-pull-8 {
        right: 66.66666667%
    }

    .col-md-pull-7 {
        right: 58.33333333%
    }

    .col-md-pull-6 {
        right: 50%
    }

    .col-md-pull-5 {
        right: 41.66666667%
    }

    .col-md-pull-4 {
        right: 33.33333333%
    }

    .col-md-pull-3 {
        right: 25%
    }

    .col-md-pull-2 {
        right: 16.66666667%
    }

    .col-md-pull-1 {
        right: 8.33333333%
    }

    .col-md-pull-0 {
        right: auto
    }

    .col-md-push-12 {
        left: 100%
    }

    .col-md-push-11 {
        left: 91.66666667%
    }

    .col-md-push-10 {
        left: 83.33333333%
    }

    .col-md-push-9 {
        left: 75%
    }

    .col-md-push-8 {
        left: 66.66666667%
    }

    .col-md-push-7 {
        left: 58.33333333%
    }

    .col-md-push-6 {
        left: 50%
    }

    .col-md-push-5 {
        left: 41.66666667%
    }

    .col-md-push-4 {
        left: 33.33333333%
    }

    .col-md-push-3 {
        left: 25%
    }

    .col-md-push-2 {
        left: 16.66666667%
    }

    .col-md-push-1 {
        left: 8.33333333%
    }

    .col-md-push-0 {
        left: auto
    }

    .col-md-offset-12 {
        margin-left: 100%
    }

    .col-md-offset-11 {
        margin-left: 91.66666667%
    }

    .col-md-offset-10 {
        margin-left: 83.33333333%
    }

    .col-md-offset-9 {
        margin-left: 75%
    }

    .col-md-offset-8 {
        margin-left: 66.66666667%
    }

    .col-md-offset-7 {
        margin-left: 58.33333333%
    }

    .col-md-offset-6 {
        margin-left: 50%
    }

    .col-md-offset-5 {
        margin-left: 41.66666667%
    }

    .col-md-offset-4 {
        margin-left: 33.33333333%
    }

    .col-md-offset-3 {
        margin-left: 25%
    }

    .col-md-offset-2 {
        margin-left: 16.66666667%
    }

    .col-md-offset-1 {
        margin-left: 8.33333333%
    }

    .col-md-offset-0 {
        margin-left: 0
    }
}

@media (min-width: 1200px) {
    .col-lg-1,.col-lg-2,.col-lg-3,.col-lg-4,.col-lg-5,.col-lg-6,.col-lg-7,.col-lg-8,.col-lg-9,.col-lg-10,.col-lg-11,.col-lg-12 {
        float:left
    }

    .col-lg-12 {
        width: 100%
    }

    .col-lg-11 {
        width: 91.66666667%
    }

    .col-lg-10 {
        width: 83.33333333%
    }

    .col-lg-9 {
        width: 75%
    }

    .col-lg-8 {
        width: 66.66666667%
    }

    .col-lg-7 {
        width: 58.33333333%
    }

    .col-lg-6 {
        width: 50%
    }

    .col-lg-5 {
        width: 41.66666667%
    }

    .col-lg-4 {
        width: 33.33333333%
    }

    .col-lg-3 {
        width: 25%
    }

    .col-lg-2 {
        width: 16.66666667%
    }

    .col-lg-1 {
        width: 8.33333333%
    }

    .col-lg-pull-12 {
        right: 100%
    }

    .col-lg-pull-11 {
        right: 91.66666667%
    }

    .col-lg-pull-10 {
        right: 83.33333333%
    }

    .col-lg-pull-9 {
        right: 75%
    }

    .col-lg-pull-8 {
        right: 66.66666667%
    }

    .col-lg-pull-7 {
        right: 58.33333333%
    }

    .col-lg-pull-6 {
        right: 50%
    }

    .col-lg-pull-5 {
        right: 41.66666667%
    }

    .col-lg-pull-4 {
        right: 33.33333333%
    }

    .col-lg-pull-3 {
        right: 25%
    }

    .col-lg-pull-2 {
        right: 16.66666667%
    }

    .col-lg-pull-1 {
        right: 8.33333333%
    }

    .col-lg-pull-0 {
        right: auto
    }

    .col-lg-push-12 {
        left: 100%
    }

    .col-lg-push-11 {
        left: 91.66666667%
    }

    .col-lg-push-10 {
        left: 83.33333333%
    }

    .col-lg-push-9 {
        left: 75%
    }

    .col-lg-push-8 {
        left: 66.66666667%
    }

    .col-lg-push-7 {
        left: 58.33333333%
    }

    .col-lg-push-6 {
        left: 50%
    }

    .col-lg-push-5 {
        left: 41.66666667%
    }

    .col-lg-push-4 {
        left: 33.33333333%
    }

    .col-lg-push-3 {
        left: 25%
    }

    .col-lg-push-2 {
        left: 16.66666667%
    }

    .col-lg-push-1 {
        left: 8.33333333%
    }

    .col-lg-push-0 {
        left: auto
    }

    .col-lg-offset-12 {
        margin-left: 100%
    }

    .col-lg-offset-11 {
        margin-left: 91.66666667%
    }

    .col-lg-offset-10 {
        margin-left: 83.33333333%
    }

    .col-lg-offset-9 {
        margin-left: 75%
    }

    .col-lg-offset-8 {
        margin-left: 66.66666667%
    }

    .col-lg-offset-7 {
        margin-left: 58.33333333%
    }

    .col-lg-offset-6 {
        margin-left: 50%
    }

    .col-lg-offset-5 {
        margin-left: 41.66666667%
    }

    .col-lg-offset-4 {
        margin-left: 33.33333333%
    }

    .col-lg-offset-3 {
        margin-left: 25%
    }

    .col-lg-offset-2 {
        margin-left: 16.66666667%
    }

    .col-lg-offset-1 {
        margin-left: 8.33333333%
    }

    .col-lg-offset-0 {
        margin-left: 0
    }
}

table {
    background-color: transparent
}

table col[class*=col-] {
    position: static;
    display: table-column;
    float: none
}

table td[class*=col-],table th[class*=col-] {
    position: static;
    display: table-cell;
    float: none
}

caption {
    padding-top: 8px;
    padding-bottom: 8px;
    color: #777
}

caption,th {
    text-align: left
}

.table {
    width: 100%;
    max-width: 100%;
    margin-bottom: 20px
}

.table>tbody>tr>td,.table>tbody>tr>th,.table>tfoot>tr>td,.table>tfoot>tr>th,.table>thead>tr>td,.table>thead>tr>th {
    padding: 8px;
    line-height: 1.42857143;
    vertical-align: top;
    border-top: 1px solid #ddd
}

.table>thead>tr>th {
    vertical-align: bottom;
    border-bottom: 2px solid #ddd
}

.table>caption+thead>tr:first-child>td,.table>caption+thead>tr:first-child>th,.table>colgroup+thead>tr:first-child>td,.table>colgroup+thead>tr:first-child>th,.table>thead:first-child>tr:first-child>td,.table>thead:first-child>tr:first-child>th {
    border-top: 0
}

.table>tbody+tbody {
    border-top: 2px solid #ddd
}

.table .table {
    background-color: #fff
}

.table-condensed>tbody>tr>td,.table-condensed>tbody>tr>th,.table-condensed>tfoot>tr>td,.table-condensed>tfoot>tr>th,.table-condensed>thead>tr>td,.table-condensed>thead>tr>th {
    padding: 5px
}

.table-bordered,.table-bordered>tbody>tr>td,.table-bordered>tbody>tr>th,.table-bordered>tfoot>tr>td,.table-bordered>tfoot>tr>th,.table-bordered>thead>tr>td,.table-bordered>thead>tr>th {
    border: 1px solid #ddd
}

.table-bordered>thead>tr>td,.table-bordered>thead>tr>th {
    border-bottom-width: 2px
}

.table-striped>tbody>tr:nth-of-type(odd) {
    background-color: #f9f9f9
}

.table-hover>tbody>tr:hover,.table>tbody>tr.active>td,.table>tbody>tr.active>th,.table>tbody>tr>td.active,.table>tbody>tr>th.active,.table>tfoot>tr.active>td,.table>tfoot>tr.active>th,.table>tfoot>tr>td.active,.table>tfoot>tr>th.active,.table>thead>tr.active>td,.table>thead>tr.active>th,.table>thead>tr>td.active,.table>thead>tr>th.active {
    background-color: #f5f5f5
}

.table-hover>tbody>tr.active:hover>td,.table-hover>tbody>tr.active:hover>th,.table-hover>tbody>tr:hover>.active,.table-hover>tbody>tr>td.active:hover,.table-hover>tbody>tr>th.active:hover {
    background-color: #e8e8e8
}

.table>tbody>tr.success>td,.table>tbody>tr.success>th,.table>tbody>tr>td.success,.table>tbody>tr>th.success,.table>tfoot>tr.success>td,.table>tfoot>tr.success>th,.table>tfoot>tr>td.success,.table>tfoot>tr>th.success,.table>thead>tr.success>td,.table>thead>tr.success>th,.table>thead>tr>td.success,.table>thead>tr>th.success {
    background-color: #dff0d8
}

.table-hover>tbody>tr.success:hover>td,.table-hover>tbody>tr.success:hover>th,.table-hover>tbody>tr:hover>.success,.table-hover>tbody>tr>td.success:hover,.table-hover>tbody>tr>th.success:hover {
    background-color: #d0e9c6
}

.table>tbody>tr.info>td,.table>tbody>tr.info>th,.table>tbody>tr>td.info,.table>tbody>tr>th.info,.table>tfoot>tr.info>td,.table>tfoot>tr.info>th,.table>tfoot>tr>td.info,.table>tfoot>tr>th.info,.table>thead>tr.info>td,.table>thead>tr.info>th,.table>thead>tr>td.info,.table>thead>tr>th.info {
    background-color: #d9edf7
}

.table-hover>tbody>tr.info:hover>td,.table-hover>tbody>tr.info:hover>th,.table-hover>tbody>tr:hover>.info,.table-hover>tbody>tr>td.info:hover,.table-hover>tbody>tr>th.info:hover {
    background-color: #c4e3f3
}

.table>tbody>tr.warning>td,.table>tbody>tr.warning>th,.table>tbody>tr>td.warning,.table>tbody>tr>th.warning,.table>tfoot>tr.warning>td,.table>tfoot>tr.warning>th,.table>tfoot>tr>td.warning,.table>tfoot>tr>th.warning,.table>thead>tr.warning>td,.table>thead>tr.warning>th,.table>thead>tr>td.warning,.table>thead>tr>th.warning {
    background-color: #fcf8e3
}

.table-hover>tbody>tr.warning:hover>td,.table-hover>tbody>tr.warning:hover>th,.table-hover>tbody>tr:hover>.warning,.table-hover>tbody>tr>td.warning:hover,.table-hover>tbody>tr>th.warning:hover {
    background-color: #faf2cc
}

.table>tbody>tr.danger>td,.table>tbody>tr.danger>th,.table>tbody>tr>td.danger,.table>tbody>tr>th.danger,.table>tfoot>tr.danger>td,.table>tfoot>tr.danger>th,.table>tfoot>tr>td.danger,.table>tfoot>tr>th.danger,.table>thead>tr.danger>td,.table>thead>tr.danger>th,.table>thead>tr>td.danger,.table>thead>tr>th.danger {
    background-color: #f2dede
}

.table-hover>tbody>tr.danger:hover>td,.table-hover>tbody>tr.danger:hover>th,.table-hover>tbody>tr:hover>.danger,.table-hover>tbody>tr>td.danger:hover,.table-hover>tbody>tr>th.danger:hover {
    background-color: #ebcccc
}

.table-responsive {
    min-height: .01%;
    overflow-x: auto
}

@media screen and (max-width: 767px) {
    .table-responsive {
        width:100%;
        margin-bottom: 15px;
        overflow-y: hidden;
        -ms-overflow-style: -ms-autohiding-scrollbar;
        border: 1px solid #ddd
    }

    .table-responsive>.table {
        margin-bottom: 0
    }

    .table-responsive>.table>tbody>tr>td,.table-responsive>.table>tbody>tr>th,.table-responsive>.table>tfoot>tr>td,.table-responsive>.table>tfoot>tr>th,.table-responsive>.table>thead>tr>td,.table-responsive>.table>thead>tr>th {
        white-space: nowrap
    }

    .table-responsive>.table-bordered {
        border: 0
    }

    .table-responsive>.table-bordered>tbody>tr>td:first-child,.table-responsive>.table-bordered>tbody>tr>th:first-child,.table-responsive>.table-bordered>tfoot>tr>td:first-child,.table-responsive>.table-bordered>tfoot>tr>th:first-child,.table-responsive>.table-bordered>thead>tr>td:first-child,.table-responsive>.table-bordered>thead>tr>th:first-child {
        border-left: 0
    }

    .table-responsive>.table-bordered>tbody>tr>td:last-child,.table-responsive>.table-bordered>tbody>tr>th:last-child,.table-responsive>.table-bordered>tfoot>tr>td:last-child,.table-responsive>.table-bordered>tfoot>tr>th:last-child,.table-responsive>.table-bordered>thead>tr>td:last-child,.table-responsive>.table-bordered>thead>tr>th:last-child {
        border-right: 0
    }

    .table-responsive>.table-bordered>tbody>tr:last-child>td,.table-responsive>.table-bordered>tbody>tr:last-child>th,.table-responsive>.table-bordered>tfoot>tr:last-child>td,.table-responsive>.table-bordered>tfoot>tr:last-child>th {
        border-bottom: 0
    }
}

fieldset {
    min-width: 0;
    margin: 0
}

fieldset,legend {
    padding: 0;
    border: 0
}

legend {
    display: block;
    width: 100%;
    margin-bottom: 20px;
    font-size: 21px;
    line-height: inherit;
    color: #333;
    border-bottom: 1px solid #e5e5e5
}

label {
    display: inline-block;
    max-width: 100%;
    margin-bottom: 5px;
    font-weight: 700
}

input[type=search] {
    -webkit-box-sizing: border-box;
    -moz-box-sizing: border-box;
    box-sizing: border-box;
    -webkit-appearance: none;
    -moz-appearance: none;
    appearance: none
}

input[type=checkbox],input[type=radio] {
    margin: 4px 0 0;
    margin-top: 1px\9;
    line-height: normal
}

fieldset[disabled] input[type=checkbox],fieldset[disabled] input[type=radio],input[type=checkbox].disabled,input[type=checkbox][disabled],input[type=radio].disabled,input[type=radio][disabled] {
    cursor: not-allowed
}

input[type=file] {
    display: block
}

input[type=range] {
    display: block;
    width: 100%
}

select[multiple],select[size] {
    height: auto
}

input[type=checkbox]:focus,input[type=file]:focus,input[type=radio]:focus {
    outline: 5px auto -webkit-focus-ring-color;
    outline-offset: -2px
}

output {
    padding-top: 7px
}

.form-control,output {
    display: block;
    font-size: 14px;
    line-height: 1.42857143;
    color: #555
}

.form-control {
    width: 100%;
    height: 34px;
    padding: 6px 12px;
    background-color: #fff;
    background-image: none;
    border: 1px solid #ccc;
    border-radius: 4px;
    -webkit-box-shadow: inset 0 1px 1px rgba(0,0,0,.075);
    box-shadow: inset 0 1px 1px rgba(0,0,0,.075);
    -webkit-transition: border-color .15s ease-in-out,box-shadow .15s ease-in-out;
    -o-transition: border-color ease-in-out .15s,box-shadow ease-in-out .15s;
    -webkit-transition: border-color .15s ease-in-out,-webkit-box-shadow .15s ease-in-out;
    transition: border-color .15s ease-in-out,-webkit-box-shadow .15s ease-in-out;
    transition: border-color .15s ease-in-out,box-shadow .15s ease-in-out;
    transition: border-color .15s ease-in-out,box-shadow .15s ease-in-out,-webkit-box-shadow .15s ease-in-out
}

.form-control:focus {
    border-color: #66afe9;
    outline: 0;
    -webkit-box-shadow: inset 0 1px 1px rgba(0,0,0,.075),0 0 8px rgba(102,175,233,.6);
    box-shadow: inset 0 1px 1px rgba(0,0,0,.075),0 0 8px rgba(102,175,233,.6)
}

.form-control::-moz-placeholder {
    color: #999;
    opacity: 1
}

.form-control:-ms-input-placeholder {
    color: #999
}

.form-control::-webkit-input-placeholder {
    color: #999
}

.form-control::-ms-expand {
    background-color: transparent;
    border: 0
}

.form-control[disabled],.form-control[readonly],fieldset[disabled] .form-control {
    background-color: #eee;
    opacity: 1
}

.form-control[disabled],fieldset[disabled] .form-control {
    cursor: not-allowed
}

textarea.form-control {
    height: auto
}

@media screen and (-webkit-min-device-pixel-ratio: 0) {
    input[type=date].form-control,input[type=datetime-local].form-control,input[type=month].form-control,input[type=time].form-control {
        line-height:34px
    }

    .input-group-sm input[type=date],.input-group-sm input[type=datetime-local],.input-group-sm input[type=month],.input-group-sm input[type=time],input[type=date].input-sm,input[type=datetime-local].input-sm,input[type=month].input-sm,input[type=time].input-sm {
        line-height: 30px
    }

    .input-group-lg input[type=date],.input-group-lg input[type=datetime-local],.input-group-lg input[type=month],.input-group-lg input[type=time],input[type=date].input-lg,input[type=datetime-local].input-lg,input[type=month].input-lg,input[type=time].input-lg {
        line-height: 46px
    }
}

.form-group {
    margin-bottom: 15px
}

.checkbox,.radio {
    position: relative;
    display: block;
    margin-top: 10px;
    margin-bottom: 10px
}

.checkbox.disabled label,.radio.disabled label,fieldset[disabled] .checkbox label,fieldset[disabled] .radio label {
    cursor: not-allowed
}

.checkbox label,.radio label {
    min-height: 20px;
    padding-left: 20px;
    margin-bottom: 0;
    font-weight: 400;
    cursor: pointer
}

.checkbox-inline input[type=checkbox],.checkbox input[type=checkbox],.radio-inline input[type=radio],.radio input[type=radio] {
    position: absolute;
    margin-top: 4px\9;
    margin-left: -20px
}

.checkbox+.checkbox,.radio+.radio {
    margin-top: -5px
}

.checkbox-inline,.radio-inline {
    position: relative;
    display: inline-block;
    padding-left: 20px;
    margin-bottom: 0;
    font-weight: 400;
    vertical-align: middle;
    cursor: pointer
}

.checkbox-inline.disabled,.radio-inline.disabled,fieldset[disabled] .checkbox-inline,fieldset[disabled] .radio-inline {
    cursor: not-allowed
}

.checkbox-inline+.checkbox-inline,.radio-inline+.radio-inline {
    margin-top: 0;
    margin-left: 10px
}

.form-control-static {
    min-height: 34px;
    padding-top: 7px;
    padding-bottom: 7px;
    margin-bottom: 0
}

.form-control-static.input-lg,.form-control-static.input-sm {
    padding-right: 0;
    padding-left: 0
}

.input-sm {
    height: 30px;
    padding: 5px 10px;
    font-size: 12px;
    line-height: 1.5;
    border-radius: 3px
}

select.input-sm {
    height: 30px;
    line-height: 30px
}

select[multiple].input-sm,textarea.input-sm {
    height: auto
}

.form-group-sm .form-control {
    height: 30px;
    padding: 5px 10px;
    font-size: 12px;
    line-height: 1.5;
    border-radius: 3px
}

.form-group-sm select.form-control {
    height: 30px;
    line-height: 30px
}

.form-group-sm select[multiple].form-control,.form-group-sm textarea.form-control {
    height: auto
}

.form-group-sm .form-control-static {
    height: 30px;
    min-height: 32px;
    padding: 6px 10px;
    font-size: 12px;
    line-height: 1.5
}

.input-lg {
    height: 46px;
    padding: 10px 16px;
    font-size: 18px;
    line-height: 1.3333333;
    border-radius: 6px
}

select.input-lg {
    height: 46px;
    line-height: 46px
}

select[multiple].input-lg,textarea.input-lg {
    height: auto
}

.form-group-lg .form-control {
    height: 46px;
    padding: 10px 16px;
    font-size: 18px;
    line-height: 1.3333333;
    border-radius: 6px
}

.form-group-lg select.form-control {
    height: 46px;
    line-height: 46px
}

.form-group-lg select[multiple].form-control,.form-group-lg textarea.form-control {
    height: auto
}

.form-group-lg .form-control-static {
    height: 46px;
    min-height: 38px;
    padding: 11px 16px;
    font-size: 18px;
    line-height: 1.3333333
}

.has-feedback {
    position: relative
}

.has-feedback .form-control {
    padding-right: 42.5px
}

.form-control-feedback {
    position: absolute;
    top: 0;
    right: 0;
    z-index: 2;
    display: block;
    width: 34px;
    height: 34px;
    line-height: 34px;
    text-align: center;
    pointer-events: none
}

.form-group-lg .form-control+.form-control-feedback,.input-group-lg+.form-control-feedback,.input-lg+.form-control-feedback {
    width: 46px;
    height: 46px;
    line-height: 46px
}

.form-group-sm .form-control+.form-control-feedback,.input-group-sm+.form-control-feedback,.input-sm+.form-control-feedback {
    width: 30px;
    height: 30px;
    line-height: 30px
}

.has-success .checkbox,.has-success .checkbox-inline,.has-success.checkbox-inline label,.has-success.checkbox label,.has-success .control-label,.has-success .help-block,.has-success .radio,.has-success .radio-inline,.has-success.radio-inline label,.has-success.radio label {
    color: #3c763d
}

.has-success .form-control {
    border-color: #3c763d;
    -webkit-box-shadow: inset 0 1px 1px rgba(0,0,0,.075);
    box-shadow: inset 0 1px 1px rgba(0,0,0,.075)
}

.has-success .form-control:focus {
    border-color: #2b542c;
    -webkit-box-shadow: inset 0 1px 1px rgba(0,0,0,.075),0 0 6px #67b168;
    box-shadow: inset 0 1px 1px rgba(0,0,0,.075),0 0 6px #67b168
}

.has-success .input-group-addon {
    color: #3c763d;
    background-color: #dff0d8;
    border-color: #3c763d
}

.has-success .form-control-feedback {
    color: #3c763d
}

.has-warning .checkbox,.has-warning .checkbox-inline,.has-warning.checkbox-inline label,.has-warning.checkbox label,.has-warning .control-label,.has-warning .help-block,.has-warning .radio,.has-warning .radio-inline,.has-warning.radio-inline label,.has-warning.radio label {
    color: #8a6d3b
}

.has-warning .form-control {
    border-color: #8a6d3b;
    -webkit-box-shadow: inset 0 1px 1px rgba(0,0,0,.075);
    box-shadow: inset 0 1px 1px rgba(0,0,0,.075)
}

.has-warning .form-control:focus {
    border-color: #66512c;
    -webkit-box-shadow: inset 0 1px 1px rgba(0,0,0,.075),0 0 6px #c0a16b;
    box-shadow: inset 0 1px 1px rgba(0,0,0,.075),0 0 6px #c0a16b
}

.has-warning .input-group-addon {
    color: #8a6d3b;
    background-color: #fcf8e3;
    border-color: #8a6d3b
}

.has-warning .form-control-feedback {
    color: #8a6d3b
}

.has-error .checkbox,.has-error .checkbox-inline,.has-error.checkbox-inline label,.has-error.checkbox label,.has-error .control-label,.has-error .help-block,.has-error .radio,.has-error .radio-inline,.has-error.radio-inline label,.has-error.radio label {
    color: #a94442
}

.has-error .form-control {
    border-color: #a94442;
    -webkit-box-shadow: inset 0 1px 1px rgba(0,0,0,.075);
    box-shadow: inset 0 1px 1px rgba(0,0,0,.075)
}

.has-error .form-control:focus {
    border-color: #843534;
    -webkit-box-shadow: inset 0 1px 1px rgba(0,0,0,.075),0 0 6px #ce8483;
    box-shadow: inset 0 1px 1px rgba(0,0,0,.075),0 0 6px #ce8483
}

.has-error .input-group-addon {
    color: #a94442;
    background-color: #f2dede;
    border-color: #a94442
}

.has-error .form-control-feedback {
    color: #a94442
}

.has-feedback label~.form-control-feedback {
    top: 25px
}

.has-feedback label.sr-only~.form-control-feedback {
    top: 0
}

.help-block {
    display: block;
    margin-top: 5px;
    margin-bottom: 10px;
    color: #737373
}

@media (min-width: 768px) {
    .form-inline .form-group {
        display:inline-block;
        margin-bottom: 0;
        vertical-align: middle
    }

    .form-inline .form-control {
        display: inline-block;
        width: auto;
        vertical-align: middle
    }

    .form-inline .form-control-static {
        display: inline-block
    }

    .form-inline .input-group {
        display: inline-table;
        vertical-align: middle
    }

    .form-inline .input-group .form-control,.form-inline .input-group .input-group-addon,.form-inline .input-group .input-group-btn {
        width: auto
    }

    .form-inline .input-group>.form-control {
        width: 100%
    }

    .form-inline .control-label {
        margin-bottom: 0;
        vertical-align: middle
    }

    .form-inline .checkbox,.form-inline .radio {
        display: inline-block;
        margin-top: 0;
        margin-bottom: 0;
        vertical-align: middle
    }

    .form-inline .checkbox label,.form-inline .radio label {
        padding-left: 0
    }

    .form-inline .checkbox input[type=checkbox],.form-inline .radio input[type=radio] {
        position: relative;
        margin-left: 0
    }

    .form-inline .has-feedback .form-control-feedback {
        top: 0
    }
}

.form-horizontal .checkbox,.form-horizontal .checkbox-inline,.form-horizontal .radio,.form-horizontal .radio-inline {
    padding-top: 7px;
    margin-top: 0;
    margin-bottom: 0
}

.form-horizontal .checkbox,.form-horizontal .radio {
    min-height: 27px
}

.form-horizontal .form-group {
    margin-right: -15px;
    margin-left: -15px
}

@media (min-width: 768px) {
    .form-horizontal .control-label {
        padding-top:7px;
        margin-bottom: 0;
        text-align: right
    }
}

.form-horizontal .has-feedback .form-control-feedback {
    right: 15px
}

@media (min-width: 768px) {
    .form-horizontal .form-group-lg .control-label {
        padding-top:11px;
        font-size: 18px
    }
}

@media (min-width: 768px) {
    .form-horizontal .form-group-sm .control-label {
        padding-top:6px;
        font-size: 12px
    }
}

.btn {
    display: inline-block;
    margin-bottom: 0;
    font-weight: 400;
    text-align: center;
    white-space: nowrap;
    vertical-align: middle;
    -ms-touch-action: manipulation;
    touch-action: manipulation;
    cursor: pointer;
    background-image: none;
    border: 1px solid transparent;
    padding: 6px 12px;
    font-size: 14px;
    line-height: 1.42857143;
    border-radius: 4px;
    -webkit-user-select: none;
    -moz-user-select: none;
    -ms-user-select: none;
    user-select: none
}

.btn.active.focus,.btn.active:focus,.btn.focus,.btn:active.focus,.btn:active:focus,.btn:focus {
    outline: 5px auto -webkit-focus-ring-color;
    outline-offset: -2px
}

.btn.focus,.btn:focus,.btn:hover {
    color: #333;
    text-decoration: none
}

.btn.active,.btn:active {
    background-image: none;
    outline: 0;
    -webkit-box-shadow: inset 0 3px 5px rgba(0,0,0,.125);
    box-shadow: inset 0 3px 5px rgba(0,0,0,.125)
}

.btn.disabled,.btn[disabled],fieldset[disabled] .btn {
    cursor: not-allowed;
    filter: alpha(opacity=65);
    opacity: .65;
    -webkit-box-shadow: none;
    box-shadow: none
}

a.btn.disabled,fieldset[disabled] a.btn {
    pointer-events: none
}

.btn-default {
    color: #333;
    background-color: #fff;
    border-color: #ccc
}

.btn-default.focus,.btn-default:focus {
    color: #333;
    background-color: #e6e6e6;
    border-color: #8c8c8c
}

.btn-default:hover {
    color: #333;
    background-color: #e6e6e6;
    border-color: #adadad
}

.btn-default.active,.btn-default:active,.open>.dropdown-toggle.btn-default {
    color: #333;
    background-color: #e6e6e6;
    background-image: none;
    border-color: #adadad
}

.btn-default.active.focus,.btn-default.active:focus,.btn-default.active:hover,.btn-default:active.focus,.btn-default:active:focus,.btn-default:active:hover,.open>.dropdown-toggle.btn-default.focus,.open>.dropdown-toggle.btn-default:focus,.open>.dropdown-toggle.btn-default:hover {
    color: #333;
    background-color: #d4d4d4;
    border-color: #8c8c8c
}

.btn-default.disabled.focus,.btn-default.disabled:focus,.btn-default.disabled:hover,.btn-default[disabled].focus,.btn-default[disabled]:focus,.btn-default[disabled]:hover,fieldset[disabled] .btn-default.focus,fieldset[disabled] .btn-default:focus,fieldset[disabled] .btn-default:hover {
    background-color: #fff;
    border-color: #ccc
}

.btn-default .badge {
    color: #fff;
    background-color: #333
}

.btn-primary {
    color: #fff;
    background-color: #337ab7;
    border-color: #2e6da4
}

.btn-primary.focus,.btn-primary:focus {
    color: #fff;
    background-color: #286090;
    border-color: #122b40
}

.btn-primary:hover {
    color: #fff;
    background-color: #286090;
    border-color: #204d74
}

.btn-primary.active,.btn-primary:active,.open>.dropdown-toggle.btn-primary {
    color: #fff;
    background-color: #286090;
    background-image: none;
    border-color: #204d74
}

.btn-primary.active.focus,.btn-primary.active:focus,.btn-primary.active:hover,.btn-primary:active.focus,.btn-primary:active:focus,.btn-primary:active:hover,.open>.dropdown-toggle.btn-primary.focus,.open>.dropdown-toggle.btn-primary:focus,.open>.dropdown-toggle.btn-primary:hover {
    color: #fff;
    background-color: #204d74;
    border-color: #122b40
}

.btn-primary.disabled.focus,.btn-primary.disabled:focus,.btn-primary.disabled:hover,.btn-primary[disabled].focus,.btn-primary[disabled]:focus,.btn-primary[disabled]:hover,fieldset[disabled] .btn-primary.focus,fieldset[disabled] .btn-primary:focus,fieldset[disabled] .btn-primary:hover {
    background-color: #337ab7;
    border-color: #2e6da4
}

.btn-primary .badge {
    color: #337ab7;
    background-color: #fff
}

.btn-success {
    color: #fff;
    background-color: #5cb85c;
    border-color: #4cae4c
}

.btn-success.focus,.btn-success:focus {
    color: #fff;
    background-color: #449d44;
    border-color: #255625
}

.btn-success:hover {
    color: #fff;
    background-color: #449d44;
    border-color: #398439
}

.btn-success.active,.btn-success:active,.open>.dropdown-toggle.btn-success {
    color: #fff;
    background-color: #449d44;
    background-image: none;
    border-color: #398439
}

.btn-success.active.focus,.btn-success.active:focus,.btn-success.active:hover,.btn-success:active.focus,.btn-success:active:focus,.btn-success:active:hover,.open>.dropdown-toggle.btn-success.focus,.open>.dropdown-toggle.btn-success:focus,.open>.dropdown-toggle.btn-success:hover {
    color: #fff;
    background-color: #398439;
    border-color: #255625
}

.btn-success.disabled.focus,.btn-success.disabled:focus,.btn-success.disabled:hover,.btn-success[disabled].focus,.btn-success[disabled]:focus,.btn-success[disabled]:hover,fieldset[disabled] .btn-success.focus,fieldset[disabled] .btn-success:focus,fieldset[disabled] .btn-success:hover {
    background-color: #5cb85c;
    border-color: #4cae4c
}

.btn-success .badge {
    color: #5cb85c;
    background-color: #fff
}

.btn-info {
    color: #fff;
    background-color: #5bc0de;
    border-color: #46b8da
}

.btn-info.focus,.btn-info:focus {
    color: #fff;
    background-color: #31b0d5;
    border-color: #1b6d85
}

.btn-info:hover {
    color: #fff;
    background-color: #31b0d5;
    border-color: #269abc
}

.btn-info.active,.btn-info:active,.open>.dropdown-toggle.btn-info {
    color: #fff;
    background-color: #31b0d5;
    background-image: none;
    border-color: #269abc
}

.btn-info.active.focus,.btn-info.active:focus,.btn-info.active:hover,.btn-info:active.focus,.btn-info:active:focus,.btn-info:active:hover,.open>.dropdown-toggle.btn-info.focus,.open>.dropdown-toggle.btn-info:focus,.open>.dropdown-toggle.btn-info:hover {
    color: #fff;
    background-color: #269abc;
    border-color: #1b6d85
}

.btn-info.disabled.focus,.btn-info.disabled:focus,.btn-info.disabled:hover,.btn-info[disabled].focus,.btn-info[disabled]:focus,.btn-info[disabled]:hover,fieldset[disabled] .btn-info.focus,fieldset[disabled] .btn-info:focus,fieldset[disabled] .btn-info:hover {
    background-color: #5bc0de;
    border-color: #46b8da
}

.btn-info .badge {
    color: #5bc0de;
    background-color: #fff
}

.btn-warning {
    color: #fff;
    background-color: #f0ad4e;
    border-color: #eea236
}

.btn-warning.focus,.btn-warning:focus {
    color: #fff;
    background-color: #ec971f;
    border-color: #985f0d
}

.btn-warning:hover {
    color: #fff;
    background-color: #ec971f;
    border-color: #d58512
}

.btn-warning.active,.btn-warning:active,.open>.dropdown-toggle.btn-warning {
    color: #fff;
    background-color: #ec971f;
    background-image: none;
    border-color: #d58512
}

.btn-warning.active.focus,.btn-warning.active:focus,.btn-warning.active:hover,.btn-warning:active.focus,.btn-warning:active:focus,.btn-warning:active:hover,.open>.dropdown-toggle.btn-warning.focus,.open>.dropdown-toggle.btn-warning:focus,.open>.dropdown-toggle.btn-warning:hover {
    color: #fff;
    background-color: #d58512;
    border-color: #985f0d
}

.btn-warning.disabled.focus,.btn-warning.disabled:focus,.btn-warning.disabled:hover,.btn-warning[disabled].focus,.btn-warning[disabled]:focus,.btn-warning[disabled]:hover,fieldset[disabled] .btn-warning.focus,fieldset[disabled] .btn-warning:focus,fieldset[disabled] .btn-warning:hover {
    background-color: #f0ad4e;
    border-color: #eea236
}

.btn-warning .badge {
    color: #f0ad4e;
    background-color: #fff
}

.btn-danger {
    color: #fff;
    background-color: #d9534f;
    border-color: #d43f3a
}

.btn-danger.focus,.btn-danger:focus {
    color: #fff;
    background-color: #c9302c;
    border-color: #761c19
}

.btn-danger:hover {
    color: #fff;
    background-color: #c9302c;
    border-color: #ac2925
}

.btn-danger.active,.btn-danger:active,.open>.dropdown-toggle.btn-danger {
    color: #fff;
    background-color: #c9302c;
    background-image: none;
    border-color: #ac2925
}

.btn-danger.active.focus,.btn-danger.active:focus,.btn-danger.active:hover,.btn-danger:active.focus,.btn-danger:active:focus,.btn-danger:active:hover,.open>.dropdown-toggle.btn-danger.focus,.open>.dropdown-toggle.btn-danger:focus,.open>.dropdown-toggle.btn-danger:hover {
    color: #fff;
    background-color: #ac2925;
    border-color: #761c19
}

.btn-danger.disabled.focus,.btn-danger.disabled:focus,.btn-danger.disabled:hover,.btn-danger[disabled].focus,.btn-danger[disabled]:focus,.btn-danger[disabled]:hover,fieldset[disabled] .btn-danger.focus,fieldset[disabled] .btn-danger:focus,fieldset[disabled] .btn-danger:hover {
    background-color: #d9534f;
    border-color: #d43f3a
}

.btn-danger .badge {
    color: #d9534f;
    background-color: #fff
}

.btn-link {
    font-weight: 400;
    color: #337ab7;
    border-radius: 0
}

.btn-link,.btn-link.active,.btn-link:active,.btn-link[disabled],fieldset[disabled] .btn-link {
    background-color: transparent;
    -webkit-box-shadow: none;
    box-shadow: none
}

.btn-link,.btn-link:active,.btn-link:focus,.btn-link:hover {
    border-color: transparent
}

.btn-link:focus,.btn-link:hover {
    color: #23527c;
    text-decoration: underline;
    background-color: transparent
}

.btn-link[disabled]:focus,.btn-link[disabled]:hover,fieldset[disabled] .btn-link:focus,fieldset[disabled] .btn-link:hover {
    color: #777;
    text-decoration: none
}

.btn-group-lg>.btn,.btn-lg {
    padding: 10px 16px;
    font-size: 18px;
    line-height: 1.3333333;
    border-radius: 6px
}

.btn-group-sm>.btn,.btn-sm {
    padding: 5px 10px;
    font-size: 12px;
    line-height: 1.5;
    border-radius: 3px
}

.btn-group-xs>.btn,.btn-xs {
    padding: 1px 5px;
    font-size: 12px;
    line-height: 1.5;
    border-radius: 3px
}

.btn-block {
    display: block;
    width: 100%
}

.btn-block+.btn-block {
    margin-top: 5px
}

input[type=button].btn-block,input[type=reset].btn-block,input[type=submit].btn-block {
    width: 100%
}

.fade {
    opacity: 0;
    -webkit-transition: opacity .15s linear;
    -o-transition: opacity .15s linear;
    transition: opacity .15s linear
}

.fade.in {
    opacity: 1
}

.collapse {
    display: none
}

.collapse.in {
    display: block
}

tr.collapse.in {
    display: table-row
}

tbody.collapse.in {
    display: table-row-group
}

.collapsing {
    position: relative;
    height: 0;
    overflow: hidden;
    -webkit-transition-property: height,visibility;
    -o-transition-property: height,visibility;
    transition-property: height,visibility;
    -webkit-transition-duration: .35s;
    -o-transition-duration: .35s;
    transition-duration: .35s;
    -webkit-transition-timing-function: ease;
    -o-transition-timing-function: ease;
    transition-timing-function: ease
}

.caret {
    display: inline-block;
    width: 0;
    height: 0;
    margin-left: 2px;
    vertical-align: middle;
    border-top: 4px dashed;
    border-top: 4px solid\9;
    border-right: 4px solid transparent;
    border-left: 4px solid transparent
}

.dropdown,.dropup {
    position: relative
}

.dropdown-toggle:focus {
    outline: 0
}

.dropdown-menu {
    position: absolute;
    top: 100%;
    left: 0;
    z-index: 1000;
    display: none;
    float: left;
    min-width: 160px;
    padding: 5px 0;
    margin: 2px 0 0;
    font-size: 14px;
    text-align: left;
    list-style: none;
    background-color: #fff;
    background-clip: padding-box;
    border: 1px solid #ccc;
    border: 1px solid rgba(0,0,0,.15);
    border-radius: 4px;
    -webkit-box-shadow: 0 6px 12px rgba(0,0,0,.175);
    box-shadow: 0 6px 12px rgba(0,0,0,.175)
}

.dropdown-menu.pull-right {
    right: 0;
    left: auto
}

.dropdown-menu .divider {
    height: 1px;
    margin: 9px 0;
    overflow: hidden;
    background-color: #e5e5e5
}

.dropdown-menu>li>a {
    display: block;
    padding: 3px 20px;
    clear: both;
    font-weight: 400;
    line-height: 1.42857143;
    color: #333;
    white-space: nowrap
}

.dropdown-menu>li>a:focus,.dropdown-menu>li>a:hover {
    color: #262626;
    text-decoration: none;
    background-color: #f5f5f5
}

.dropdown-menu>.active>a,.dropdown-menu>.active>a:focus,.dropdown-menu>.active>a:hover {
    color: #fff;
    text-decoration: none;
    background-color: #337ab7;
    outline: 0
}

.dropdown-menu>.disabled>a,.dropdown-menu>.disabled>a:focus,.dropdown-menu>.disabled>a:hover {
    color: #777
}

.dropdown-menu>.disabled>a:focus,.dropdown-menu>.disabled>a:hover {
    text-decoration: none;
    cursor: not-allowed;
    background-color: transparent;
    background-image: none;
    filter: progid:DXImageTransform.Microsoft.gradient(enabled=false)
}

.open>.dropdown-menu {
    display: block
}

.open>a {
    outline: 0
}

.dropdown-menu-right {
    right: 0;
    left: auto
}

.dropdown-menu-left {
    right: auto;
    left: 0
}

.dropdown-header {
    display: block;
    padding: 3px 20px;
    font-size: 12px;
    line-height: 1.42857143;
    color: #777;
    white-space: nowrap
}

.dropdown-backdrop {
    position: fixed;
    top: 0;
    right: 0;
    bottom: 0;
    left: 0;
    z-index: 990
}

.pull-right>.dropdown-menu {
    right: 0;
    left: auto
}

.dropup .caret,.navbar-fixed-bottom .dropdown .caret {
    content: "";
    border-top: 0;
    border-bottom: 4px dashed;
    border-bottom: 4px solid\9
}

.dropup .dropdown-menu,.navbar-fixed-bottom .dropdown .dropdown-menu {
    top: auto;
    bottom: 100%;
    margin-bottom: 2px
}

@media (min-width: 768px) {
    .navbar-right .dropdown-menu {
        right:0;
        left: auto
    }

    .navbar-right .dropdown-menu-left {
        right: auto;
        left: 0
    }
}

.btn-group,.btn-group-vertical {
    position: relative;
    display: inline-block;
    vertical-align: middle
}

.btn-group-vertical>.btn,.btn-group>.btn {
    position: relative;
    float: left
}

.btn-group-vertical>.btn.active,.btn-group-vertical>.btn:active,.btn-group-vertical>.btn:focus,.btn-group-vertical>.btn:hover,.btn-group>.btn.active,.btn-group>.btn:active,.btn-group>.btn:focus,.btn-group>.btn:hover {
    z-index: 2
}

.btn-group .btn+.btn,.btn-group .btn+.btn-group,.btn-group .btn-group+.btn,.btn-group .btn-group+.btn-group {
    margin-left: -1px
}

.btn-toolbar {
    margin-left: -5px
}

.btn-toolbar .btn,.btn-toolbar .btn-group,.btn-toolbar .input-group {
    float: left
}

.btn-toolbar>.btn,.btn-toolbar>.btn-group,.btn-toolbar>.input-group {
    margin-left: 5px
}

.btn-group>.btn:not(:first-child):not(:last-child):not(.dropdown-toggle) {
    border-radius: 0
}

.btn-group>.btn:first-child {
    margin-left: 0
}

.btn-group>.btn:first-child:not(:last-child):not(.dropdown-toggle) {
    border-top-right-radius: 0;
    border-bottom-right-radius: 0
}

.btn-group>.btn:last-child:not(:first-child),.btn-group>.dropdown-toggle:not(:first-child) {
    border-top-left-radius: 0;
    border-bottom-left-radius: 0
}

.btn-group>.btn-group {
    float: left
}

.btn-group>.btn-group:not(:first-child):not(:last-child)>.btn {
    border-radius: 0
}

.btn-group>.btn-group:first-child:not(:last-child)>.btn:last-child,.btn-group>.btn-group:first-child:not(:last-child)>.dropdown-toggle {
    border-top-right-radius: 0;
    border-bottom-right-radius: 0
}

.btn-group>.btn-group:last-child:not(:first-child)>.btn:first-child {
    border-top-left-radius: 0;
    border-bottom-left-radius: 0
}

.btn-group .dropdown-toggle:active,.btn-group.open .dropdown-toggle {
    outline: 0
}

.btn-group>.btn+.dropdown-toggle {
    padding-right: 8px;
    padding-left: 8px
}

.btn-group>.btn-lg+.dropdown-toggle {
    padding-right: 12px;
    padding-left: 12px
}

.btn-group.open .dropdown-toggle {
    -webkit-box-shadow: inset 0 3px 5px rgba(0,0,0,.125);
    box-shadow: inset 0 3px 5px rgba(0,0,0,.125)
}

.btn-group.open .dropdown-toggle.btn-link {
    -webkit-box-shadow: none;
    box-shadow: none
}

.btn .caret {
    margin-left: 0
}

.btn-lg .caret {
    border-width: 5px 5px 0
}

.dropup .btn-lg .caret {
    border-width: 0 5px 5px
}

.btn-group-vertical>.btn,.btn-group-vertical>.btn-group,.btn-group-vertical>.btn-group>.btn {
    display: block;
    float: none;
    width: 100%;
    max-width: 100%
}

.btn-group-vertical>.btn-group>.btn {
    float: none
}

.btn-group-vertical>.btn+.btn,.btn-group-vertical>.btn+.btn-group,.btn-group-vertical>.btn-group+.btn,.btn-group-vertical>.btn-group+.btn-group {
    margin-top: -1px;
    margin-left: 0
}

.btn-group-vertical>.btn:not(:first-child):not(:last-child) {
    border-radius: 0
}

.btn-group-vertical>.btn:first-child:not(:last-child) {
    border-top-left-radius: 4px;
    border-top-right-radius: 4px;
    border-bottom-right-radius: 0;
    border-bottom-left-radius: 0
}

.btn-group-vertical>.btn:last-child:not(:first-child) {
    border-top-left-radius: 0;
    border-top-right-radius: 0;
    border-bottom-right-radius: 4px;
    border-bottom-left-radius: 4px
}

.btn-group-vertical>.btn-group:not(:first-child):not(:last-child)>.btn {
    border-radius: 0
}

.btn-group-vertical>.btn-group:first-child:not(:last-child)>.btn:last-child,.btn-group-vertical>.btn-group:first-child:not(:last-child)>.dropdown-toggle {
    border-bottom-right-radius: 0;
    border-bottom-left-radius: 0
}

.btn-group-vertical>.btn-group:last-child:not(:first-child)>.btn:first-child {
    border-top-left-radius: 0;
    border-top-right-radius: 0
}

.btn-group-justified {
    display: table;
    width: 100%;
    table-layout: fixed;
    border-collapse: separate
}

.btn-group-justified>.btn,.btn-group-justified>.btn-group {
    display: table-cell;
    float: none;
    width: 1%
}

.btn-group-justified>.btn-group .btn {
    width: 100%
}

.btn-group-justified>.btn-group .dropdown-menu {
    left: auto
}

[data-toggle=buttons]>.btn-group>.btn input[type=checkbox],[data-toggle=buttons]>.btn-group>.btn input[type=radio],[data-toggle=buttons]>.btn input[type=checkbox],[data-toggle=buttons]>.btn input[type=radio] {
    position: absolute;
    clip: rect(0,0,0,0);
    pointer-events: none
}

.input-group {
    position: relative;
    display: table;
    border-collapse: separate
}

.input-group[class*=col-] {
    float: none;
    padding-right: 0;
    padding-left: 0
}

.input-group .form-control {
    position: relative;
    z-index: 2;
    float: left;
    width: 100%;
    margin-bottom: 0
}

.input-group .form-control:focus {
    z-index: 3
}

.input-group-lg>.form-control,.input-group-lg>.input-group-addon,.input-group-lg>.input-group-btn>.btn {
    height: 46px;
    padding: 10px 16px;
    font-size: 18px;
    line-height: 1.3333333;
    border-radius: 6px
}

select.input-group-lg>.form-control,select.input-group-lg>.input-group-addon,select.input-group-lg>.input-group-btn>.btn {
    height: 46px;
    line-height: 46px
}

select[multiple].input-group-lg>.form-control,select[multiple].input-group-lg>.input-group-addon,select[multiple].input-group-lg>.input-group-btn>.btn,textarea.input-group-lg>.form-control,textarea.input-group-lg>.input-group-addon,textarea.input-group-lg>.input-group-btn>.btn {
    height: auto
}

.input-group-sm>.form-control,.input-group-sm>.input-group-addon,.input-group-sm>.input-group-btn>.btn {
    height: 30px;
    padding: 5px 10px;
    font-size: 12px;
    line-height: 1.5;
    border-radius: 3px
}

select.input-group-sm>.form-control,select.input-group-sm>.input-group-addon,select.input-group-sm>.input-group-btn>.btn {
    height: 30px;
    line-height: 30px
}

select[multiple].input-group-sm>.form-control,select[multiple].input-group-sm>.input-group-addon,select[multiple].input-group-sm>.input-group-btn>.btn,textarea.input-group-sm>.form-control,textarea.input-group-sm>.input-group-addon,textarea.input-group-sm>.input-group-btn>.btn {
    height: auto
}

.input-group-addon,.input-group-btn,.input-group .form-control {
    display: table-cell
}

.input-group-addon:not(:first-child):not(:last-child),.input-group-btn:not(:first-child):not(:last-child),.input-group .form-control:not(:first-child):not(:last-child) {
    border-radius: 0
}

.input-group-addon,.input-group-btn {
    width: 1%;
    white-space: nowrap;
    vertical-align: middle
}

.input-group-addon {
    padding: 6px 12px;
    font-size: 14px;
    font-weight: 400;
    line-height: 1;
    color: #555;
    text-align: center;
    background-color: #eee;
    border: 1px solid #ccc;
    border-radius: 4px
}

.input-group-addon.input-sm {
    padding: 5px 10px;
    font-size: 12px;
    border-radius: 3px
}

.input-group-addon.input-lg {
    padding: 10px 16px;
    font-size: 18px;
    border-radius: 6px
}

.input-group-addon input[type=checkbox],.input-group-addon input[type=radio] {
    margin-top: 0
}

.input-group-addon:first-child,.input-group-btn:first-child>.btn,.input-group-btn:first-child>.btn-group>.btn,.input-group-btn:first-child>.dropdown-toggle,.input-group-btn:last-child>.btn-group:not(:last-child)>.btn,.input-group-btn:last-child>.btn:not(:last-child):not(.dropdown-toggle),.input-group .form-control:first-child {
    border-top-right-radius: 0;
    border-bottom-right-radius: 0
}

.input-group-addon:first-child {
    border-right: 0
}

.input-group-addon:last-child,.input-group-btn:first-child>.btn-group:not(:first-child)>.btn,.input-group-btn:first-child>.btn:not(:first-child),.input-group-btn:last-child>.btn,.input-group-btn:last-child>.btn-group>.btn,.input-group-btn:last-child>.dropdown-toggle,.input-group .form-control:last-child {
    border-top-left-radius: 0;
    border-bottom-left-radius: 0
}

.input-group-addon:last-child {
    border-left: 0
}

.input-group-btn {
    font-size: 0;
    white-space: nowrap
}

.input-group-btn,.input-group-btn>.btn {
    position: relative
}

.input-group-btn>.btn+.btn {
    margin-left: -1px
}

.input-group-btn>.btn:active,.input-group-btn>.btn:focus,.input-group-btn>.btn:hover {
    z-index: 2
}

.input-group-btn:first-child>.btn,.input-group-btn:first-child>.btn-group {
    margin-right: -1px
}

.input-group-btn:last-child>.btn,.input-group-btn:last-child>.btn-group {
    z-index: 2;
    margin-left: -1px
}

.nav {
    padding-left: 0;
    margin-bottom: 0;
    list-style: none
}

.nav>li,.nav>li>a {
    position: relative;
    display: block
}

.nav>li>a {
    padding: 10px 15px
}

.nav>li>a:focus,.nav>li>a:hover {
    text-decoration: none;
    background-color: #eee
}

.nav>li.disabled>a {
    color: #777
}

.nav>li.disabled>a:focus,.nav>li.disabled>a:hover {
    color: #777;
    text-decoration: none;
    cursor: not-allowed;
    background-color: transparent
}

.nav .open>a,.nav .open>a:focus,.nav .open>a:hover {
    background-color: #eee;
    border-color: #337ab7
}

.nav .nav-divider {
    height: 1px;
    margin: 9px 0;
    overflow: hidden;
    background-color: #e5e5e5
}

.nav>li>a>img {
    max-width: none
}

.nav-tabs {
    border-bottom: 1px solid #ddd
}

.nav-tabs>li {
    float: left;
    margin-bottom: -1px
}

.nav-tabs>li>a {
    margin-right: 2px;
    line-height: 1.42857143;
    border: 1px solid transparent;
    border-radius: 4px 4px 0 0
}

.nav-tabs>li>a:hover {
    border-color: #eee #eee #ddd
}

.nav-tabs>li.active>a,.nav-tabs>li.active>a:focus,.nav-tabs>li.active>a:hover {
    color: #555;
    cursor: default;
    background-color: #fff;
    border: 1px solid;
    border-color: #ddd #ddd transparent
}

.nav-tabs.nav-justified {
    width: 100%;
    border-bottom: 0
}

.nav-tabs.nav-justified>li {
    float: none
}

.nav-tabs.nav-justified>li>a {
    margin-bottom: 5px;
    text-align: center
}

.nav-tabs.nav-justified>.dropdown .dropdown-menu {
    top: auto;
    left: auto
}

@media (min-width: 768px) {
    .nav-tabs.nav-justified>li {
        display:table-cell;
        width: 1%
    }

    .nav-tabs.nav-justified>li>a {
        margin-bottom: 0
    }
}

.nav-tabs.nav-justified>li>a {
    margin-right: 0;
    border-radius: 4px
}

.nav-tabs.nav-justified>.active>a,.nav-tabs.nav-justified>.active>a:focus,.nav-tabs.nav-justified>.active>a:hover {
    border: 1px solid #ddd
}

@media (min-width: 768px) {
    .nav-tabs.nav-justified>li>a {
        border-bottom:1px solid #ddd;
        border-radius: 4px 4px 0 0
    }

    .nav-tabs.nav-justified>.active>a,.nav-tabs.nav-justified>.active>a:focus,.nav-tabs.nav-justified>.active>a:hover {
        border-bottom-color: #fff
    }
}

.nav-pills>li {
    float: left
}

.nav-pills>li>a {
    border-radius: 4px
}

.nav-pills>li+li {
    margin-left: 2px
}

.nav-pills>li.active>a,.nav-pills>li.active>a:focus,.nav-pills>li.active>a:hover {
    color: #fff;
    background-color: #337ab7
}

.nav-stacked>li {
    float: none
}

.nav-stacked>li+li {
    margin-top: 2px;
    margin-left: 0
}

.nav-justified {
    width: 100%
}

.nav-justified>li {
    float: none
}

.nav-justified>li>a {
    margin-bottom: 5px;
    text-align: center
}

.nav-justified>.dropdown .dropdown-menu {
    top: auto;
    left: auto
}

@media (min-width: 768px) {
    .nav-justified>li {
        display:table-cell;
        width: 1%
    }

    .nav-justified>li>a {
        margin-bottom: 0
    }
}

.nav-tabs-justified {
    border-bottom: 0
}

.nav-tabs-justified>li>a {
    margin-right: 0;
    border-radius: 4px
}

.nav-tabs-justified>.active>a,.nav-tabs-justified>.active>a:focus,.nav-tabs-justified>.active>a:hover {
    border: 1px solid #ddd
}

@media (min-width: 768px) {
    .nav-tabs-justified>li>a {
        border-bottom:1px solid #ddd;
        border-radius: 4px 4px 0 0
    }

    .nav-tabs-justified>.active>a,.nav-tabs-justified>.active>a:focus,.nav-tabs-justified>.active>a:hover {
        border-bottom-color: #fff
    }
}

.tab-content>.tab-pane {
    display: none
}

.tab-content>.active {
    display: block
}

.nav-tabs .dropdown-menu {
    margin-top: -1px;
    border-top-left-radius: 0;
    border-top-right-radius: 0
}

.navbar {
    position: relative;
    min-height: 50px;
    margin-bottom: 20px;
    border: 1px solid transparent
}

@media (min-width: 768px) {
    .navbar {
        border-radius:4px
    }
}

@media (min-width: 768px) {
    .navbar-header {
        float:left
    }
}

.navbar-collapse {
    padding-right: 15px;
    padding-left: 15px;
    overflow-x: visible;
    border-top: 1px solid transparent;
    -webkit-box-shadow: inset 0 1px 0 hsla(0,0%,100%,.1);
    box-shadow: inset 0 1px 0 hsla(0,0%,100%,.1);
    -webkit-overflow-scrolling: touch
}

.navbar-collapse.in {
    overflow-y: auto
}

@media (min-width: 768px) {
    .navbar-collapse {
        width:auto;
        border-top: 0;
        -webkit-box-shadow: none;
        box-shadow: none
    }

    .navbar-collapse.collapse {
        display: block!important;
        height: auto!important;
        padding-bottom: 0;
        overflow: visible!important
    }

    .navbar-collapse.in {
        overflow-y: visible
    }

    .navbar-fixed-bottom .navbar-collapse,.navbar-fixed-top .navbar-collapse,.navbar-static-top .navbar-collapse {
        padding-right: 0;
        padding-left: 0
    }
}

.navbar-fixed-bottom,.navbar-fixed-top {
    position: fixed;
    right: 0;
    left: 0;
    z-index: 1030
}

.navbar-fixed-bottom .navbar-collapse,.navbar-fixed-top .navbar-collapse {
    max-height: 340px
}

@media (max-device-width: 480px) and (orientation:landscape) {
    .navbar-fixed-bottom .navbar-collapse,.navbar-fixed-top .navbar-collapse {
        max-height:200px
    }
}

@media (min-width: 768px) {
    .navbar-fixed-bottom,.navbar-fixed-top {
        border-radius:0
    }
}

.navbar-fixed-top {
    top: 0;
    border-width: 0 0 1px
}

.navbar-fixed-bottom {
    bottom: 0;
    margin-bottom: 0;
    border-width: 1px 0 0
}

.container-fluid>.navbar-collapse,.container-fluid>.navbar-header,.container>.navbar-collapse,.container>.navbar-header {
    margin-right: -15px;
    margin-left: -15px
}

@media (min-width: 768px) {
    .container-fluid>.navbar-collapse,.container-fluid>.navbar-header,.container>.navbar-collapse,.container>.navbar-header {
        margin-right:0;
        margin-left: 0
    }
}

.navbar-static-top {
    z-index: 1000;
    border-width: 0 0 1px
}

@media (min-width: 768px) {
    .navbar-static-top {
        border-radius:0
    }
}

.navbar-brand {
    float: left;
    height: 50px;
    padding: 15px;
    font-size: 18px;
    line-height: 20px
}

.navbar-brand:focus,.navbar-brand:hover {
    text-decoration: none
}

.navbar-brand>img {
    display: block
}

@media (min-width: 768px) {
    .navbar>.container-fluid .navbar-brand,.navbar>.container .navbar-brand {
        margin-left:-15px
    }
}

.navbar-toggle {
    position: relative;
    float: right;
    padding: 9px 10px;
    margin-right: 15px;
    margin-top: 8px;
    margin-bottom: 8px;
    background-color: transparent;
    background-image: none;
    border: 1px solid transparent;
    border-radius: 4px
}

.navbar-toggle:focus {
    outline: 0
}

.navbar-toggle .icon-bar {
    display: block;
    width: 22px;
    height: 2px;
    border-radius: 1px
}

.navbar-toggle .icon-bar+.icon-bar {
    margin-top: 4px
}

@media (min-width: 768px) {
    .navbar-toggle {
        display:none
    }
}

.navbar-nav {
    margin: 7.5px -15px
}

.navbar-nav>li>a {
    padding-top: 10px;
    padding-bottom: 10px;
    line-height: 20px
}

@media (max-width: 767px) {
    .navbar-nav .open .dropdown-menu {
        position:static;
        float: none;
        width: auto;
        margin-top: 0;
        background-color: transparent;
        border: 0;
        -webkit-box-shadow: none;
        box-shadow: none
    }

    .navbar-nav .open .dropdown-menu .dropdown-header,.navbar-nav .open .dropdown-menu>li>a {
        padding: 5px 15px 5px 25px
    }

    .navbar-nav .open .dropdown-menu>li>a {
        line-height: 20px
    }

    .navbar-nav .open .dropdown-menu>li>a:focus,.navbar-nav .open .dropdown-menu>li>a:hover {
        background-image: none
    }
}

@media (min-width: 768px) {
    .navbar-nav {
        float:left;
        margin: 0
    }

    .navbar-nav>li {
        float: left
    }

    .navbar-nav>li>a {
        padding-top: 15px;
        padding-bottom: 15px
    }
}

.navbar-form {
    padding: 10px 15px;
    border-top: 1px solid transparent;
    border-bottom: 1px solid transparent;
    -webkit-box-shadow: inset 0 1px 0 hsla(0,0%,100%,.1),0 1px 0 hsla(0,0%,100%,.1);
    box-shadow: inset 0 1px 0 hsla(0,0%,100%,.1),0 1px 0 hsla(0,0%,100%,.1);
    margin: 8px -15px
}

@media (min-width: 768px) {
    .navbar-form .form-group {
        display:inline-block;
        margin-bottom: 0;
        vertical-align: middle
    }

    .navbar-form .form-control {
        display: inline-block;
        width: auto;
        vertical-align: middle
    }

    .navbar-form .form-control-static {
        display: inline-block
    }

    .navbar-form .input-group {
        display: inline-table;
        vertical-align: middle
    }

    .navbar-form .input-group .form-control,.navbar-form .input-group .input-group-addon,.navbar-form .input-group .input-group-btn {
        width: auto
    }

    .navbar-form .input-group>.form-control {
        width: 100%
    }

    .navbar-form .control-label {
        margin-bottom: 0;
        vertical-align: middle
    }

    .navbar-form .checkbox,.navbar-form .radio {
        display: inline-block;
        margin-top: 0;
        margin-bottom: 0;
        vertical-align: middle
    }

    .navbar-form .checkbox label,.navbar-form .radio label {
        padding-left: 0
    }

    .navbar-form .checkbox input[type=checkbox],.navbar-form .radio input[type=radio] {
        position: relative;
        margin-left: 0
    }

    .navbar-form .has-feedback .form-control-feedback {
        top: 0
    }
}

@media (max-width: 767px) {
    .navbar-form .form-group {
        margin-bottom:5px
    }

    .navbar-form .form-group:last-child {
        margin-bottom: 0
    }
}

@media (min-width: 768px) {
    .navbar-form {
        width:auto;
        padding-top: 0;
        padding-bottom: 0;
        margin-right: 0;
        margin-left: 0;
        border: 0;
        -webkit-box-shadow: none;
        box-shadow: none
    }
}

.navbar-nav>li>.dropdown-menu {
    margin-top: 0;
    border-top-left-radius: 0;
    border-top-right-radius: 0
}

.navbar-fixed-bottom .navbar-nav>li>.dropdown-menu {
    margin-bottom: 0;
    border-top-left-radius: 4px;
    border-top-right-radius: 4px;
    border-bottom-right-radius: 0;
    border-bottom-left-radius: 0
}

.navbar-btn {
    margin-top: 8px;
    margin-bottom: 8px
}

.navbar-btn.btn-sm {
    margin-top: 10px;
    margin-bottom: 10px
}

.navbar-btn.btn-xs {
    margin-top: 14px;
    margin-bottom: 14px
}

.navbar-text {
    margin-top: 15px;
    margin-bottom: 15px
}

@media (min-width: 768px) {
    .navbar-text {
        float:left;
        margin-right: 15px;
        margin-left: 15px
    }
}

@media (min-width: 768px) {
    .navbar-left {
        float:left!important
    }

    .navbar-right {
        float: right!important;
        margin-right: -15px
    }

    .navbar-right~.navbar-right {
        margin-right: 0
    }
}

.navbar-default {
    background-color: #f8f8f8;
    border-color: #e7e7e7
}

.navbar-default .navbar-brand {
    color: #777
}

.navbar-default .navbar-brand:focus,.navbar-default .navbar-brand:hover {
    color: #5e5e5e;
    background-color: transparent
}

.navbar-default .navbar-nav>li>a,.navbar-default .navbar-text {
    color: #777
}

.navbar-default .navbar-nav>li>a:focus,.navbar-default .navbar-nav>li>a:hover {
    color: #333;
    background-color: transparent
}

.navbar-default .navbar-nav>.active>a,.navbar-default .navbar-nav>.active>a:focus,.navbar-default .navbar-nav>.active>a:hover {
    color: #555;
    background-color: #e7e7e7
}

.navbar-default .navbar-nav>.disabled>a,.navbar-default .navbar-nav>.disabled>a:focus,.navbar-default .navbar-nav>.disabled>a:hover {
    color: #ccc;
    background-color: transparent
}

.navbar-default .navbar-nav>.open>a,.navbar-default .navbar-nav>.open>a:focus,.navbar-default .navbar-nav>.open>a:hover {
    color: #555;
    background-color: #e7e7e7
}

@media (max-width: 767px) {
    .navbar-default .navbar-nav .open .dropdown-menu>li>a {
        color:#777
    }

    .navbar-default .navbar-nav .open .dropdown-menu>li>a:focus,.navbar-default .navbar-nav .open .dropdown-menu>li>a:hover {
        color: #333;
        background-color: transparent
    }

    .navbar-default .navbar-nav .open .dropdown-menu>.active>a,.navbar-default .navbar-nav .open .dropdown-menu>.active>a:focus,.navbar-default .navbar-nav .open .dropdown-menu>.active>a:hover {
        color: #555;
        background-color: #e7e7e7
    }

    .navbar-default .navbar-nav .open .dropdown-menu>.disabled>a,.navbar-default .navbar-nav .open .dropdown-menu>.disabled>a:focus,.navbar-default .navbar-nav .open .dropdown-menu>.disabled>a:hover {
        color: #ccc;
        background-color: transparent
    }
}

.navbar-default .navbar-toggle {
    border-color: #ddd
}

.navbar-default .navbar-toggle:focus,.navbar-default .navbar-toggle:hover {
    background-color: #ddd
}

.navbar-default .navbar-toggle .icon-bar {
    background-color: #888
}

.navbar-default .navbar-collapse,.navbar-default .navbar-form {
    border-color: #e7e7e7
}

.navbar-default .navbar-link {
    color: #777
}

.navbar-default .navbar-link:hover {
    color: #333
}

.navbar-default .btn-link {
    color: #777
}

.navbar-default .btn-link:focus,.navbar-default .btn-link:hover {
    color: #333
}

.navbar-default .btn-link[disabled]:focus,.navbar-default .btn-link[disabled]:hover,fieldset[disabled] .navbar-default .btn-link:focus,fieldset[disabled] .navbar-default .btn-link:hover {
    color: #ccc
}

.navbar-inverse {
    background-color: #222;
    border-color: #080808
}

.navbar-inverse .navbar-brand {
    color: #9d9d9d
}

.navbar-inverse .navbar-brand:focus,.navbar-inverse .navbar-brand:hover {
    color: #fff;
    background-color: transparent
}

.navbar-inverse .navbar-nav>li>a,.navbar-inverse .navbar-text {
    color: #9d9d9d
}

.navbar-inverse .navbar-nav>li>a:focus,.navbar-inverse .navbar-nav>li>a:hover {
    color: #fff;
    background-color: transparent
}

.navbar-inverse .navbar-nav>.active>a,.navbar-inverse .navbar-nav>.active>a:focus,.navbar-inverse .navbar-nav>.active>a:hover {
    color: #fff;
    background-color: #080808
}

.navbar-inverse .navbar-nav>.disabled>a,.navbar-inverse .navbar-nav>.disabled>a:focus,.navbar-inverse .navbar-nav>.disabled>a:hover {
    color: #444;
    background-color: transparent
}

.navbar-inverse .navbar-nav>.open>a,.navbar-inverse .navbar-nav>.open>a:focus,.navbar-inverse .navbar-nav>.open>a:hover {
    color: #fff;
    background-color: #080808
}

@media (max-width: 767px) {
    .navbar-inverse .navbar-nav .open .dropdown-menu>.dropdown-header {
        border-color:#080808
    }

    .navbar-inverse .navbar-nav .open .dropdown-menu .divider {
        background-color: #080808
    }

    .navbar-inverse .navbar-nav .open .dropdown-menu>li>a {
        color: #9d9d9d
    }

    .navbar-inverse .navbar-nav .open .dropdown-menu>li>a:focus,.navbar-inverse .navbar-nav .open .dropdown-menu>li>a:hover {
        color: #fff;
        background-color: transparent
    }

    .navbar-inverse .navbar-nav .open .dropdown-menu>.active>a,.navbar-inverse .navbar-nav .open .dropdown-menu>.active>a:focus,.navbar-inverse .navbar-nav .open .dropdown-menu>.active>a:hover {
        color: #fff;
        background-color: #080808
    }

    .navbar-inverse .navbar-nav .open .dropdown-menu>.disabled>a,.navbar-inverse .navbar-nav .open .dropdown-menu>.disabled>a:focus,.navbar-inverse .navbar-nav .open .dropdown-menu>.disabled>a:hover {
        color: #444;
        background-color: transparent
    }
}

.navbar-inverse .navbar-toggle {
    border-color: #333
}

.navbar-inverse .navbar-toggle:focus,.navbar-inverse .navbar-toggle:hover {
    background-color: #333
}

.navbar-inverse .navbar-toggle .icon-bar {
    background-color: #fff
}

.navbar-inverse .navbar-collapse,.navbar-inverse .navbar-form {
    border-color: #101010
}

.navbar-inverse .navbar-link {
    color: #9d9d9d
}

.navbar-inverse .navbar-link:hover {
    color: #fff
}

.navbar-inverse .btn-link {
    color: #9d9d9d
}

.navbar-inverse .btn-link:focus,.navbar-inverse .btn-link:hover {
    color: #fff
}

.navbar-inverse .btn-link[disabled]:focus,.navbar-inverse .btn-link[disabled]:hover,fieldset[disabled] .navbar-inverse .btn-link:focus,fieldset[disabled] .navbar-inverse .btn-link:hover {
    color: #444
}

.breadcrumb {
    padding: 8px 15px;
    margin-bottom: 20px;
    list-style: none;
    background-color: #f5f5f5;
    border-radius: 4px
}

.breadcrumb>li {
    display: inline-block
}

.breadcrumb>li+li:before {
    padding: 0 5px;
    color: #ccc;
    content: "/\00a0"
}

.breadcrumb>.active {
    color: #777
}

.pagination {
    display: inline-block;
    padding-left: 0;
    margin: 20px 0;
    border-radius: 4px
}

.pagination>li {
    display: inline
}

.pagination>li>a,.pagination>li>span {
    position: relative;
    float: left;
    padding: 6px 12px;
    margin-left: -1px;
    line-height: 1.42857143;
    color: #337ab7;
    text-decoration: none;
    background-color: #fff;
    border: 1px solid #ddd
}

.pagination>li>a:focus,.pagination>li>a:hover,.pagination>li>span:focus,.pagination>li>span:hover {
    z-index: 2;
    color: #23527c;
    background-color: #eee;
    border-color: #ddd
}

.pagination>li:first-child>a,.pagination>li:first-child>span {
    margin-left: 0;
    border-top-left-radius: 4px;
    border-bottom-left-radius: 4px
}

.pagination>li:last-child>a,.pagination>li:last-child>span {
    border-top-right-radius: 4px;
    border-bottom-right-radius: 4px
}

.pagination>.active>a,.pagination>.active>a:focus,.pagination>.active>a:hover,.pagination>.active>span,.pagination>.active>span:focus,.pagination>.active>span:hover {
    z-index: 3;
    color: #fff;
    cursor: default;
    background-color: #337ab7;
    border-color: #337ab7
}

.pagination>.disabled>a,.pagination>.disabled>a:focus,.pagination>.disabled>a:hover,.pagination>.disabled>span,.pagination>.disabled>span:focus,.pagination>.disabled>span:hover {
    color: #777;
    cursor: not-allowed;
    background-color: #fff;
    border-color: #ddd
}

.pagination-lg>li>a,.pagination-lg>li>span {
    padding: 10px 16px;
    font-size: 18px;
    line-height: 1.3333333
}

.pagination-lg>li:first-child>a,.pagination-lg>li:first-child>span {
    border-top-left-radius: 6px;
    border-bottom-left-radius: 6px
}

.pagination-lg>li:last-child>a,.pagination-lg>li:last-child>span {
    border-top-right-radius: 6px;
    border-bottom-right-radius: 6px
}

.pagination-sm>li>a,.pagination-sm>li>span {
    padding: 5px 10px;
    font-size: 12px;
    line-height: 1.5
}

.pagination-sm>li:first-child>a,.pagination-sm>li:first-child>span {
    border-top-left-radius: 3px;
    border-bottom-left-radius: 3px
}

.pagination-sm>li:last-child>a,.pagination-sm>li:last-child>span {
    border-top-right-radius: 3px;
    border-bottom-right-radius: 3px
}

.pager {
    padding-left: 0;
    margin: 20px 0;
    text-align: center;
    list-style: none
}

.pager li {
    display: inline
}

.pager li>a,.pager li>span {
    display: inline-block;
    padding: 5px 14px;
    background-color: #fff;
    border: 1px solid #ddd;
    border-radius: 15px
}

.pager li>a:focus,.pager li>a:hover {
    text-decoration: none;
    background-color: #eee
}

.pager .next>a,.pager .next>span {
    float: right
}

.pager .previous>a,.pager .previous>span {
    float: left
}

.pager .disabled>a,.pager .disabled>a:focus,.pager .disabled>a:hover,.pager .disabled>span {
    color: #777;
    cursor: not-allowed;
    background-color: #fff
}

.label {
    display: inline;
    padding: .2em .6em .3em;
    font-size: 75%;
    font-weight: 700;
    line-height: 1;
    color: #fff;
    text-align: center;
    white-space: nowrap;
    vertical-align: baseline;
    border-radius: .25em
}

a.label:focus,a.label:hover {
    color: #fff;
    text-decoration: none;
    cursor: pointer
}

.label:empty {
    display: none
}

.btn .label {
    position: relative;
    top: -1px
}

.label-default {
    background-color: #777
}

.label-default[href]:focus,.label-default[href]:hover {
    background-color: #5e5e5e
}

.label-primary {
    background-color: #337ab7
}

.label-primary[href]:focus,.label-primary[href]:hover {
    background-color: #286090
}

.label-success {
    background-color: #5cb85c
}

.label-success[href]:focus,.label-success[href]:hover {
    background-color: #449d44
}

.label-info {
    background-color: #5bc0de
}

.label-info[href]:focus,.label-info[href]:hover {
    background-color: #31b0d5
}

.label-warning {
    background-color: #f0ad4e
}

.label-warning[href]:focus,.label-warning[href]:hover {
    background-color: #ec971f
}

.label-danger {
    background-color: #d9534f
}

.label-danger[href]:focus,.label-danger[href]:hover {
    background-color: #c9302c
}

.badge {
    display: inline-block;
    min-width: 10px;
    padding: 3px 7px;
    font-size: 12px;
    font-weight: 700;
    line-height: 1;
    color: #fff;
    text-align: center;
    white-space: nowrap;
    vertical-align: middle;
    background-color: #777;
    border-radius: 10px
}

.badge:empty {
    display: none
}

.btn .badge {
    position: relative;
    top: -1px
}

.btn-group-xs>.btn .badge,.btn-xs .badge {
    top: 0;
    padding: 1px 5px
}

a.badge:focus,a.badge:hover {
    color: #fff;
    text-decoration: none;
    cursor: pointer
}

.list-group-item.active>.badge,.nav-pills>.active>a>.badge {
    color: #337ab7;
    background-color: #fff
}

.list-group-item>.badge {
    float: right
}

.list-group-item>.badge+.badge {
    margin-right: 5px
}

.nav-pills>li>a>.badge {
    margin-left: 3px
}

.jumbotron {
    padding-top: 30px;
    padding-bottom: 30px;
    margin-bottom: 30px;
    background-color: #eee
}

.jumbotron,.jumbotron .h1,.jumbotron h1 {
    color: inherit
}

.jumbotron p {
    margin-bottom: 15px;
    font-size: 21px;
    font-weight: 200
}

.jumbotron>hr {
    border-top-color: #d5d5d5
}

.container-fluid .jumbotron,.container .jumbotron {
    padding-right: 15px;
    padding-left: 15px;
    border-radius: 6px
}

.jumbotron .container {
    max-width: 100%
}

@media screen and (min-width: 768px) {
    .jumbotron {
        padding-top:48px;
        padding-bottom: 48px
    }

    .container-fluid .jumbotron,.container .jumbotron {
        padding-right: 60px;
        padding-left: 60px
    }

    .jumbotron .h1,.jumbotron h1 {
        font-size: 63px
    }
}

.thumbnail {
    display: block;
    padding: 4px;
    margin-bottom: 20px;
    line-height: 1.42857143;
    background-color: #fff;
    border: 1px solid #ddd;
    border-radius: 4px;
    -webkit-transition: border .2s ease-in-out;
    -o-transition: border .2s ease-in-out;
    transition: border .2s ease-in-out
}

.thumbnail>img,.thumbnail a>img {
    margin-right: auto;
    margin-left: auto
}

a.thumbnail.active,a.thumbnail:focus,a.thumbnail:hover {
    border-color: #337ab7
}

.thumbnail .caption {
    padding: 9px;
    color: #333
}

.alert {
    padding: 15px;
    margin-bottom: 20px;
    border: 1px solid transparent;
    border-radius: 4px
}

.alert h4 {
    margin-top: 0;
    color: inherit
}

.alert .alert-link {
    font-weight: 700
}

.alert>p,.alert>ul {
    margin-bottom: 0
}

.alert>p+p {
    margin-top: 5px
}

.alert-dismissable,.alert-dismissible {
    padding-right: 35px
}

.alert-dismissable .close,.alert-dismissible .close {
    position: relative;
    top: -2px;
    right: -21px;
    color: inherit
}

.alert-success {
    color: #3c763d;
    background-color: #dff0d8;
    border-color: #d6e9c6
}

.alert-success hr {
    border-top-color: #c9e2b3
}

.alert-success .alert-link {
    color: #2b542c
}

.alert-info {
    color: #31708f;
    background-color: #d9edf7;
    border-color: #bce8f1
}

.alert-info hr {
    border-top-color: #a6e1ec
}

.alert-info .alert-link {
    color: #245269
}

.alert-warning {
    color: #8a6d3b;
    background-color: #fcf8e3;
    border-color: #faebcc
}

.alert-warning hr {
    border-top-color: #f7e1b5
}

.alert-warning .alert-link {
    color: #66512c
}

.alert-danger {
    color: #a94442;
    background-color: #f2dede;
    border-color: #ebccd1
}

.alert-danger hr {
    border-top-color: #e4b9c0
}

.alert-danger .alert-link {
    color: #843534
}

@-webkit-keyframes progress-bar-stripes {
    0% {
        background-position: 40px 0
    }

    to {
        background-position: 0 0
    }
}

@-o-keyframes progress-bar-stripes {
    0% {
        background-position: 40px 0
    }

    to {
        background-position: 0 0
    }
}

@keyframes progress-bar-stripes {
    0% {
        background-position: 40px 0
    }

    to {
        background-position: 0 0
    }
}

.progress {
    height: 20px;
    margin-bottom: 20px;
    overflow: hidden;
    background-color: #f5f5f5;
    border-radius: 4px;
    -webkit-box-shadow: inset 0 1px 2px rgba(0,0,0,.1);
    box-shadow: inset 0 1px 2px rgba(0,0,0,.1)
}

.progress-bar {
    float: left;
    width: 0;
    height: 100%;
    font-size: 12px;
    line-height: 20px;
    color: #fff;
    text-align: center;
    background-color: #337ab7;
    -webkit-box-shadow: inset 0 -1px 0 rgba(0,0,0,.15);
    box-shadow: inset 0 -1px 0 rgba(0,0,0,.15);
    -webkit-transition: width .6s ease;
    -o-transition: width .6s ease;
    transition: width .6s ease
}

.progress-bar-striped,.progress-striped .progress-bar {
    background-image: -webkit-linear-gradient(45deg,hsla(0,0%,100%,.15) 25%,transparent 0,transparent 50%,hsla(0,0%,100%,.15) 0,hsla(0,0%,100%,.15) 75%,transparent 0,transparent);
    background-image: -o-linear-gradient(45deg,hsla(0,0%,100%,.15) 25%,transparent 25%,transparent 50%,hsla(0,0%,100%,.15) 50%,hsla(0,0%,100%,.15) 75%,transparent 75%,transparent);
    background-image: linear-gradient(45deg,hsla(0,0%,100%,.15) 25%,transparent 0,transparent 50%,hsla(0,0%,100%,.15) 0,hsla(0,0%,100%,.15) 75%,transparent 0,transparent);
    -webkit-background-size: 40px 40px;
    background-size: 40px 40px
}

.progress-bar.active,.progress.active .progress-bar {
    -webkit-animation: progress-bar-stripes 2s linear infinite;
    -o-animation: progress-bar-stripes 2s linear infinite;
    animation: progress-bar-stripes 2s linear infinite
}

.progress-bar-success {
    background-color: #5cb85c
}

.progress-striped .progress-bar-success {
    background-image: -webkit-linear-gradient(45deg,hsla(0,0%,100%,.15) 25%,transparent 0,transparent 50%,hsla(0,0%,100%,.15) 0,hsla(0,0%,100%,.15) 75%,transparent 0,transparent);
    background-image: -o-linear-gradient(45deg,hsla(0,0%,100%,.15) 25%,transparent 25%,transparent 50%,hsla(0,0%,100%,.15) 50%,hsla(0,0%,100%,.15) 75%,transparent 75%,transparent);
    background-image: linear-gradient(45deg,hsla(0,0%,100%,.15) 25%,transparent 0,transparent 50%,hsla(0,0%,100%,.15) 0,hsla(0,0%,100%,.15) 75%,transparent 0,transparent)
}

.progress-bar-info {
    background-color: #5bc0de
}

.progress-striped .progress-bar-info {
    background-image: -webkit-linear-gradient(45deg,hsla(0,0%,100%,.15) 25%,transparent 0,transparent 50%,hsla(0,0%,100%,.15) 0,hsla(0,0%,100%,.15) 75%,transparent 0,transparent);
    background-image: -o-linear-gradient(45deg,hsla(0,0%,100%,.15) 25%,transparent 25%,transparent 50%,hsla(0,0%,100%,.15) 50%,hsla(0,0%,100%,.15) 75%,transparent 75%,transparent);
    background-image: linear-gradient(45deg,hsla(0,0%,100%,.15) 25%,transparent 0,transparent 50%,hsla(0,0%,100%,.15) 0,hsla(0,0%,100%,.15) 75%,transparent 0,transparent)
}

.progress-bar-warning {
    background-color: #f0ad4e
}

.progress-striped .progress-bar-warning {
    background-image: -webkit-linear-gradient(45deg,hsla(0,0%,100%,.15) 25%,transparent 0,transparent 50%,hsla(0,0%,100%,.15) 0,hsla(0,0%,100%,.15) 75%,transparent 0,transparent);
    background-image: -o-linear-gradient(45deg,hsla(0,0%,100%,.15) 25%,transparent 25%,transparent 50%,hsla(0,0%,100%,.15) 50%,hsla(0,0%,100%,.15) 75%,transparent 75%,transparent);
    background-image: linear-gradient(45deg,hsla(0,0%,100%,.15) 25%,transparent 0,transparent 50%,hsla(0,0%,100%,.15) 0,hsla(0,0%,100%,.15) 75%,transparent 0,transparent)
}

.progress-bar-danger {
    background-color: #d9534f
}

.progress-striped .progress-bar-danger {
    background-image: -webkit-linear-gradient(45deg,hsla(0,0%,100%,.15) 25%,transparent 0,transparent 50%,hsla(0,0%,100%,.15) 0,hsla(0,0%,100%,.15) 75%,transparent 0,transparent);
    background-image: -o-linear-gradient(45deg,hsla(0,0%,100%,.15) 25%,transparent 25%,transparent 50%,hsla(0,0%,100%,.15) 50%,hsla(0,0%,100%,.15) 75%,transparent 75%,transparent);
    background-image: linear-gradient(45deg,hsla(0,0%,100%,.15) 25%,transparent 0,transparent 50%,hsla(0,0%,100%,.15) 0,hsla(0,0%,100%,.15) 75%,transparent 0,transparent)
}

.media {
    margin-top: 15px
}

.media:first-child {
    margin-top: 0
}

.media,.media-body {
    overflow: hidden;
    zoom:1}

.media-body {
    width: 10000px
}

.media-object {
    display: block
}

.media-object.img-thumbnail {
    max-width: none
}

.media-right,.media>.pull-right {
    padding-left: 10px
}

.media-left,.media>.pull-left {
    padding-right: 10px
}

.media-body,.media-left,.media-right {
    display: table-cell;
    vertical-align: top
}

.media-middle {
    vertical-align: middle
}

.media-bottom {
    vertical-align: bottom
}

.media-heading {
    margin-top: 0;
    margin-bottom: 5px
}

.media-list {
    padding-left: 0;
    list-style: none
}

.list-group {
    padding-left: 0;
    margin-bottom: 20px
}

.list-group-item {
    position: relative;
    display: block;
    padding: 10px 15px;
    margin-bottom: -1px;
    background-color: #fff;
    border: 1px solid #ddd
}

.list-group-item:first-child {
    border-top-left-radius: 4px;
    border-top-right-radius: 4px
}

.list-group-item:last-child {
    margin-bottom: 0;
    border-bottom-right-radius: 4px;
    border-bottom-left-radius: 4px
}

.list-group-item.disabled,.list-group-item.disabled:focus,.list-group-item.disabled:hover {
    color: #777;
    cursor: not-allowed;
    background-color: #eee
}

.list-group-item.disabled .list-group-item-heading,.list-group-item.disabled:focus .list-group-item-heading,.list-group-item.disabled:hover .list-group-item-heading {
    color: inherit
}

.list-group-item.disabled .list-group-item-text,.list-group-item.disabled:focus .list-group-item-text,.list-group-item.disabled:hover .list-group-item-text {
    color: #777
}

.list-group-item.active,.list-group-item.active:focus,.list-group-item.active:hover {
    z-index: 2;
    color: #fff;
    background-color: #337ab7;
    border-color: #337ab7
}

.list-group-item.active .list-group-item-heading,.list-group-item.active .list-group-item-heading>.small,.list-group-item.active .list-group-item-heading>small,.list-group-item.active:focus .list-group-item-heading,.list-group-item.active:focus .list-group-item-heading>.small,.list-group-item.active:focus .list-group-item-heading>small,.list-group-item.active:hover .list-group-item-heading,.list-group-item.active:hover .list-group-item-heading>.small,.list-group-item.active:hover .list-group-item-heading>small {
    color: inherit
}

.list-group-item.active .list-group-item-text,.list-group-item.active:focus .list-group-item-text,.list-group-item.active:hover .list-group-item-text {
    color: #c7ddef
}

a.list-group-item,button.list-group-item {
    color: #555
}

a.list-group-item .list-group-item-heading,button.list-group-item .list-group-item-heading {
    color: #333
}

a.list-group-item:focus,a.list-group-item:hover,button.list-group-item:focus,button.list-group-item:hover {
    color: #555;
    text-decoration: none;
    background-color: #f5f5f5
}

button.list-group-item {
    width: 100%;
    text-align: left
}

.list-group-item-success {
    color: #3c763d;
    background-color: #dff0d8
}

a.list-group-item-success,button.list-group-item-success {
    color: #3c763d
}

a.list-group-item-success .list-group-item-heading,button.list-group-item-success .list-group-item-heading {
    color: inherit
}

a.list-group-item-success:focus,a.list-group-item-success:hover,button.list-group-item-success:focus,button.list-group-item-success:hover {
    color: #3c763d;
    background-color: #d0e9c6
}

a.list-group-item-success.active,a.list-group-item-success.active:focus,a.list-group-item-success.active:hover,button.list-group-item-success.active,button.list-group-item-success.active:focus,button.list-group-item-success.active:hover {
    color: #fff;
    background-color: #3c763d;
    border-color: #3c763d
}

.list-group-item-info {
    color: #31708f;
    background-color: #d9edf7
}

a.list-group-item-info,button.list-group-item-info {
    color: #31708f
}

a.list-group-item-info .list-group-item-heading,button.list-group-item-info .list-group-item-heading {
    color: inherit
}

a.list-group-item-info:focus,a.list-group-item-info:hover,button.list-group-item-info:focus,button.list-group-item-info:hover {
    color: #31708f;
    background-color: #c4e3f3
}

a.list-group-item-info.active,a.list-group-item-info.active:focus,a.list-group-item-info.active:hover,button.list-group-item-info.active,button.list-group-item-info.active:focus,button.list-group-item-info.active:hover {
    color: #fff;
    background-color: #31708f;
    border-color: #31708f
}

.list-group-item-warning {
    color: #8a6d3b;
    background-color: #fcf8e3
}

a.list-group-item-warning,button.list-group-item-warning {
    color: #8a6d3b
}

a.list-group-item-warning .list-group-item-heading,button.list-group-item-warning .list-group-item-heading {
    color: inherit
}

a.list-group-item-warning:focus,a.list-group-item-warning:hover,button.list-group-item-warning:focus,button.list-group-item-warning:hover {
    color: #8a6d3b;
    background-color: #faf2cc
}

a.list-group-item-warning.active,a.list-group-item-warning.active:focus,a.list-group-item-warning.active:hover,button.list-group-item-warning.active,button.list-group-item-warning.active:focus,button.list-group-item-warning.active:hover {
    color: #fff;
    background-color: #8a6d3b;
    border-color: #8a6d3b
}

.list-group-item-danger {
    color: #a94442;
    background-color: #f2dede
}

a.list-group-item-danger,button.list-group-item-danger {
    color: #a94442
}

a.list-group-item-danger .list-group-item-heading,button.list-group-item-danger .list-group-item-heading {
    color: inherit
}

a.list-group-item-danger:focus,a.list-group-item-danger:hover,button.list-group-item-danger:focus,button.list-group-item-danger:hover {
    color: #a94442;
    background-color: #ebcccc
}

a.list-group-item-danger.active,a.list-group-item-danger.active:focus,a.list-group-item-danger.active:hover,button.list-group-item-danger.active,button.list-group-item-danger.active:focus,button.list-group-item-danger.active:hover {
    color: #fff;
    background-color: #a94442;
    border-color: #a94442
}

.list-group-item-heading {
    margin-top: 0;
    margin-bottom: 5px
}

.list-group-item-text {
    margin-bottom: 0;
    line-height: 1.3
}

.panel {
    margin-bottom: 20px;
    background-color: #fff;
    border: 1px solid transparent;
    border-radius: 4px;
    -webkit-box-shadow: 0 1px 1px rgba(0,0,0,.05);
    box-shadow: 0 1px 1px rgba(0,0,0,.05)
}

.panel-body {
    padding: 15px
}

.panel-heading {
    padding: 10px 15px;
    border-bottom: 1px solid transparent;
    border-top-left-radius: 3px;
    border-top-right-radius: 3px
}

.panel-heading>.dropdown .dropdown-toggle,.panel-title {
    color: inherit
}

.panel-title {
    margin-top: 0;
    margin-bottom: 0;
    font-size: 16px
}

.panel-title>.small,.panel-title>.small>a,.panel-title>a,.panel-title>small,.panel-title>small>a {
    color: inherit
}

.panel-footer {
    padding: 10px 15px;
    background-color: #f5f5f5;
    border-top: 1px solid #ddd;
    border-bottom-right-radius: 3px;
    border-bottom-left-radius: 3px
}

.panel>.list-group,.panel>.panel-collapse>.list-group {
    margin-bottom: 0
}

.panel>.list-group .list-group-item,.panel>.panel-collapse>.list-group .list-group-item {
    border-width: 1px 0;
    border-radius: 0
}

.panel>.list-group:first-child .list-group-item:first-child,.panel>.panel-collapse>.list-group:first-child .list-group-item:first-child {
    border-top: 0;
    border-top-left-radius: 3px;
    border-top-right-radius: 3px
}

.panel>.list-group:last-child .list-group-item:last-child,.panel>.panel-collapse>.list-group:last-child .list-group-item:last-child {
    border-bottom: 0;
    border-bottom-right-radius: 3px;
    border-bottom-left-radius: 3px
}

.panel>.panel-heading+.panel-collapse>.list-group .list-group-item:first-child {
    border-top-left-radius: 0;
    border-top-right-radius: 0
}

.list-group+.panel-footer,.panel-heading+.list-group .list-group-item:first-child {
    border-top-width: 0
}

.panel>.panel-collapse>.table,.panel>.table,.panel>.table-responsive>.table {
    margin-bottom: 0
}

.panel>.panel-collapse>.table caption,.panel>.table-responsive>.table caption,.panel>.table caption {
    padding-right: 15px;
    padding-left: 15px
}

.panel>.table-responsive:first-child>.table:first-child,.panel>.table-responsive:first-child>.table:first-child>tbody:first-child>tr:first-child,.panel>.table-responsive:first-child>.table:first-child>thead:first-child>tr:first-child,.panel>.table:first-child,.panel>.table:first-child>tbody:first-child>tr:first-child,.panel>.table:first-child>thead:first-child>tr:first-child {
    border-top-left-radius: 3px;
    border-top-right-radius: 3px
}

.panel>.table-responsive:first-child>.table:first-child>tbody:first-child>tr:first-child td:first-child,.panel>.table-responsive:first-child>.table:first-child>tbody:first-child>tr:first-child th:first-child,.panel>.table-responsive:first-child>.table:first-child>thead:first-child>tr:first-child td:first-child,.panel>.table-responsive:first-child>.table:first-child>thead:first-child>tr:first-child th:first-child,.panel>.table:first-child>tbody:first-child>tr:first-child td:first-child,.panel>.table:first-child>tbody:first-child>tr:first-child th:first-child,.panel>.table:first-child>thead:first-child>tr:first-child td:first-child,.panel>.table:first-child>thead:first-child>tr:first-child th:first-child {
    border-top-left-radius: 3px
}

.panel>.table-responsive:first-child>.table:first-child>tbody:first-child>tr:first-child td:last-child,.panel>.table-responsive:first-child>.table:first-child>tbody:first-child>tr:first-child th:last-child,.panel>.table-responsive:first-child>.table:first-child>thead:first-child>tr:first-child td:last-child,.panel>.table-responsive:first-child>.table:first-child>thead:first-child>tr:first-child th:last-child,.panel>.table:first-child>tbody:first-child>tr:first-child td:last-child,.panel>.table:first-child>tbody:first-child>tr:first-child th:last-child,.panel>.table:first-child>thead:first-child>tr:first-child td:last-child,.panel>.table:first-child>thead:first-child>tr:first-child th:last-child {
    border-top-right-radius: 3px
}

.panel>.table-responsive:last-child>.table:last-child,.panel>.table-responsive:last-child>.table:last-child>tbody:last-child>tr:last-child,.panel>.table-responsive:last-child>.table:last-child>tfoot:last-child>tr:last-child,.panel>.table:last-child,.panel>.table:last-child>tbody:last-child>tr:last-child,.panel>.table:last-child>tfoot:last-child>tr:last-child {
    border-bottom-right-radius: 3px;
    border-bottom-left-radius: 3px
}

.panel>.table-responsive:last-child>.table:last-child>tbody:last-child>tr:last-child td:first-child,.panel>.table-responsive:last-child>.table:last-child>tbody:last-child>tr:last-child th:first-child,.panel>.table-responsive:last-child>.table:last-child>tfoot:last-child>tr:last-child td:first-child,.panel>.table-responsive:last-child>.table:last-child>tfoot:last-child>tr:last-child th:first-child,.panel>.table:last-child>tbody:last-child>tr:last-child td:first-child,.panel>.table:last-child>tbody:last-child>tr:last-child th:first-child,.panel>.table:last-child>tfoot:last-child>tr:last-child td:first-child,.panel>.table:last-child>tfoot:last-child>tr:last-child th:first-child {
    border-bottom-left-radius: 3px
}

.panel>.table-responsive:last-child>.table:last-child>tbody:last-child>tr:last-child td:last-child,.panel>.table-responsive:last-child>.table:last-child>tbody:last-child>tr:last-child th:last-child,.panel>.table-responsive:last-child>.table:last-child>tfoot:last-child>tr:last-child td:last-child,.panel>.table-responsive:last-child>.table:last-child>tfoot:last-child>tr:last-child th:last-child,.panel>.table:last-child>tbody:last-child>tr:last-child td:last-child,.panel>.table:last-child>tbody:last-child>tr:last-child th:last-child,.panel>.table:last-child>tfoot:last-child>tr:last-child td:last-child,.panel>.table:last-child>tfoot:last-child>tr:last-child th:last-child {
    border-bottom-right-radius: 3px
}

.panel>.panel-body+.table,.panel>.panel-body+.table-responsive,.panel>.table+.panel-body,.panel>.table-responsive+.panel-body {
    border-top: 1px solid #ddd
}

.panel>.table>tbody:first-child>tr:first-child td,.panel>.table>tbody:first-child>tr:first-child th {
    border-top: 0
}

.panel>.table-bordered,.panel>.table-responsive>.table-bordered {
    border: 0
}

.panel>.table-bordered>tbody>tr>td:first-child,.panel>.table-bordered>tbody>tr>th:first-child,.panel>.table-bordered>tfoot>tr>td:first-child,.panel>.table-bordered>tfoot>tr>th:first-child,.panel>.table-bordered>thead>tr>td:first-child,.panel>.table-bordered>thead>tr>th:first-child,.panel>.table-responsive>.table-bordered>tbody>tr>td:first-child,.panel>.table-responsive>.table-bordered>tbody>tr>th:first-child,.panel>.table-responsive>.table-bordered>tfoot>tr>td:first-child,.panel>.table-responsive>.table-bordered>tfoot>tr>th:first-child,.panel>.table-responsive>.table-bordered>thead>tr>td:first-child,.panel>.table-responsive>.table-bordered>thead>tr>th:first-child {
    border-left: 0
}

.panel>.table-bordered>tbody>tr>td:last-child,.panel>.table-bordered>tbody>tr>th:last-child,.panel>.table-bordered>tfoot>tr>td:last-child,.panel>.table-bordered>tfoot>tr>th:last-child,.panel>.table-bordered>thead>tr>td:last-child,.panel>.table-bordered>thead>tr>th:last-child,.panel>.table-responsive>.table-bordered>tbody>tr>td:last-child,.panel>.table-responsive>.table-bordered>tbody>tr>th:last-child,.panel>.table-responsive>.table-bordered>tfoot>tr>td:last-child,.panel>.table-responsive>.table-bordered>tfoot>tr>th:last-child,.panel>.table-responsive>.table-bordered>thead>tr>td:last-child,.panel>.table-responsive>.table-bordered>thead>tr>th:last-child {
    border-right: 0
}

.panel>.table-bordered>tbody>tr:first-child>td,.panel>.table-bordered>tbody>tr:first-child>th,.panel>.table-bordered>tbody>tr:last-child>td,.panel>.table-bordered>tbody>tr:last-child>th,.panel>.table-bordered>tfoot>tr:last-child>td,.panel>.table-bordered>tfoot>tr:last-child>th,.panel>.table-bordered>thead>tr:first-child>td,.panel>.table-bordered>thead>tr:first-child>th,.panel>.table-responsive>.table-bordered>tbody>tr:first-child>td,.panel>.table-responsive>.table-bordered>tbody>tr:first-child>th,.panel>.table-responsive>.table-bordered>tbody>tr:last-child>td,.panel>.table-responsive>.table-bordered>tbody>tr:last-child>th,.panel>.table-responsive>.table-bordered>tfoot>tr:last-child>td,.panel>.table-responsive>.table-bordered>tfoot>tr:last-child>th,.panel>.table-responsive>.table-bordered>thead>tr:first-child>td,.panel>.table-responsive>.table-bordered>thead>tr:first-child>th {
    border-bottom: 0
}

.panel>.table-responsive {
    margin-bottom: 0;
    border: 0
}

.panel-group {
    margin-bottom: 20px
}

.panel-group .panel {
    margin-bottom: 0;
    border-radius: 4px
}

.panel-group .panel+.panel {
    margin-top: 5px
}

.panel-group .panel-heading {
    border-bottom: 0
}

.panel-group .panel-heading+.panel-collapse>.list-group,.panel-group .panel-heading+.panel-collapse>.panel-body {
    border-top: 1px solid #ddd
}

.panel-group .panel-footer {
    border-top: 0
}

.panel-group .panel-footer+.panel-collapse .panel-body {
    border-bottom: 1px solid #ddd
}

.panel-default {
    border-color: #ddd
}

.panel-default>.panel-heading {
    color: #333;
    background-color: #f5f5f5;
    border-color: #ddd
}

.panel-default>.panel-heading+.panel-collapse>.panel-body {
    border-top-color: #ddd
}

.panel-default>.panel-heading .badge {
    color: #f5f5f5;
    background-color: #333
}

.panel-default>.panel-footer+.panel-collapse>.panel-body {
    border-bottom-color: #ddd
}

.panel-primary {
    border-color: #337ab7
}

.panel-primary>.panel-heading {
    color: #fff;
    background-color: #337ab7;
    border-color: #337ab7
}

.panel-primary>.panel-heading+.panel-collapse>.panel-body {
    border-top-color: #337ab7
}

.panel-primary>.panel-heading .badge {
    color: #337ab7;
    background-color: #fff
}

.panel-primary>.panel-footer+.panel-collapse>.panel-body {
    border-bottom-color: #337ab7
}

.panel-success {
    border-color: #d6e9c6
}

.panel-success>.panel-heading {
    color: #3c763d;
    background-color: #dff0d8;
    border-color: #d6e9c6
}

.panel-success>.panel-heading+.panel-collapse>.panel-body {
    border-top-color: #d6e9c6
}

.panel-success>.panel-heading .badge {
    color: #dff0d8;
    background-color: #3c763d
}

.panel-success>.panel-footer+.panel-collapse>.panel-body {
    border-bottom-color: #d6e9c6
}

.panel-info {
    border-color: #bce8f1
}

.panel-info>.panel-heading {
    color: #31708f;
    background-color: #d9edf7;
    border-color: #bce8f1
}

.panel-info>.panel-heading+.panel-collapse>.panel-body {
    border-top-color: #bce8f1
}

.panel-info>.panel-heading .badge {
    color: #d9edf7;
    background-color: #31708f
}

.panel-info>.panel-footer+.panel-collapse>.panel-body {
    border-bottom-color: #bce8f1
}

.panel-warning {
    border-color: #faebcc
}

.panel-warning>.panel-heading {
    color: #8a6d3b;
    background-color: #fcf8e3;
    border-color: #faebcc
}

.panel-warning>.panel-heading+.panel-collapse>.panel-body {
    border-top-color: #faebcc
}

.panel-warning>.panel-heading .badge {
    color: #fcf8e3;
    background-color: #8a6d3b
}

.panel-warning>.panel-footer+.panel-collapse>.panel-body {
    border-bottom-color: #faebcc
}

.panel-danger {
    border-color: #ebccd1
}

.panel-danger>.panel-heading {
    color: #a94442;
    background-color: #f2dede;
    border-color: #ebccd1
}

.panel-danger>.panel-heading+.panel-collapse>.panel-body {
    border-top-color: #ebccd1
}

.panel-danger>.panel-heading .badge {
    color: #f2dede;
    background-color: #a94442
}

.panel-danger>.panel-footer+.panel-collapse>.panel-body {
    border-bottom-color: #ebccd1
}

.embed-responsive {
    position: relative;
    display: block;
    height: 0;
    padding: 0;
    overflow: hidden
}

.embed-responsive .embed-responsive-item,.embed-responsive embed,.embed-responsive iframe,.embed-responsive object,.embed-responsive video {
    position: absolute;
    top: 0;
    bottom: 0;
    left: 0;
    width: 100%;
    height: 100%;
    border: 0
}

.embed-responsive-16by9 {
    padding-bottom: 56.25%
}

.embed-responsive-4by3 {
    padding-bottom: 75%
}

.well {
    min-height: 20px;
    padding: 19px;
    margin-bottom: 20px;
    background-color: #f5f5f5;
    border: 1px solid #e3e3e3;
    border-radius: 4px;
    -webkit-box-shadow: inset 0 1px 1px rgba(0,0,0,.05);
    box-shadow: inset 0 1px 1px rgba(0,0,0,.05)
}

.well blockquote {
    border-color: #ddd;
    border-color: rgba(0,0,0,.15)
}

.well-lg {
    padding: 24px;
    border-radius: 6px
}

.well-sm {
    padding: 9px;
    border-radius: 3px
}

.close {
    float: right;
    font-size: 21px;
    font-weight: 700;
    line-height: 1;
    color: #000;
    text-shadow: 0 1px 0 #fff;
    filter: alpha(opacity=20);
    opacity: .2
}

.close:focus,.close:hover {
    color: #000;
    text-decoration: none;
    cursor: pointer;
    filter: alpha(opacity=50);
    opacity: .5
}

button.close {
    padding: 0;
    cursor: pointer;
    background: 0 0;
    border: 0;
    -webkit-appearance: none;
    -moz-appearance: none;
    appearance: none
}

.modal,.modal-open {
    overflow: hidden
}

.modal {
    position: fixed;
    top: 0;
    right: 0;
    bottom: 0;
    left: 0;
    z-index: 1050;
    display: none;
    -webkit-overflow-scrolling: touch;
    outline: 0
}

.modal.fade .modal-dialog {
    -webkit-transform: translateY(-25%);
    -ms-transform: translateY(-25%);
    -o-transform: translateY(-25%);
    transform: translateY(-25%);
    -webkit-transition: -webkit-transform .3s ease-out;
    -o-transition: -o-transform .3s ease-out;
    transition: -webkit-transform .3s ease-out;
    transition: transform .3s ease-out;
    transition: transform .3s ease-out,-webkit-transform .3s ease-out,-o-transform .3s ease-out
}

.modal.in .modal-dialog {
    -webkit-transform: translate(0);
    -ms-transform: translate(0);
    -o-transform: translate(0);
    transform: translate(0)
}

.modal-open .modal {
    overflow-x: hidden;
    overflow-y: auto
}

.modal-dialog {
    position: relative;
    width: auto;
    margin: 10px
}

.modal-content {
    position: relative;
    background-color: #fff;
    background-clip: padding-box;
    border: 1px solid #999;
    border: 1px solid rgba(0,0,0,.2);
    border-radius: 6px;
    -webkit-box-shadow: 0 3px 9px rgba(0,0,0,.5);
    box-shadow: 0 3px 9px rgba(0,0,0,.5);
    outline: 0
}

.modal-backdrop {
    position: fixed;
    top: 0;
    right: 0;
    bottom: 0;
    left: 0;
    z-index: 1040;
    background-color: #000
}

.modal-backdrop.fade {
    filter: alpha(opacity=0);
    opacity: 0
}

.modal-backdrop.in {
    filter: alpha(opacity=50);
    opacity: .5
}

.modal-header {
    padding: 15px;
    border-bottom: 1px solid #e5e5e5
}

.modal-header .close {
    margin-top: -2px
}

.modal-title {
    margin: 0;
    line-height: 1.42857143
}

.modal-body {
    position: relative;
    padding: 15px
}

.modal-footer {
    padding: 15px;
    text-align: right;
    border-top: 1px solid #e5e5e5
}

.modal-footer .btn+.btn {
    margin-bottom: 0;
    margin-left: 5px
}

.modal-footer .btn-group .btn+.btn {
    margin-left: -1px
}

.modal-footer .btn-block+.btn-block {
    margin-left: 0
}

.modal-scrollbar-measure {
    position: absolute;
    top: -9999px;
    width: 50px;
    height: 50px;
    overflow: scroll
}

@media (min-width: 768px) {
    .modal-dialog {
        width:600px;
        margin: 30px auto
    }

    .modal-content {
        -webkit-box-shadow: 0 5px 15px rgba(0,0,0,.5);
        box-shadow: 0 5px 15px rgba(0,0,0,.5)
    }

    .modal-sm {
        width: 300px
    }
}

@media (min-width: 992px) {
    .modal-lg {
        width:900px
    }
}

.tooltip {
    position: absolute;
    z-index: 1070;
    display: block;
    font-family: Helvetica Neue,Helvetica,Arial,sans-serif;
    font-style: normal;
    font-weight: 400;
    line-height: 1.42857143;
    line-break: auto;
    text-align: left;
    text-align: start;
    text-decoration: none;
    text-shadow: none;
    text-transform: none;
    letter-spacing: normal;
    word-break: normal;
    word-spacing: normal;
    word-wrap: normal;
    white-space: normal;
    font-size: 12px;
    filter: alpha(opacity=0);
    opacity: 0
}

.tooltip.in {
    filter: alpha(opacity=90);
    opacity: .9
}

.tooltip.top {
    padding: 5px 0;
    margin-top: -3px
}

.tooltip.right {
    padding: 0 5px;
    margin-left: 3px
}

.tooltip.bottom {
    padding: 5px 0;
    margin-top: 3px
}

.tooltip.left {
    padding: 0 5px;
    margin-left: -3px
}

.tooltip.top .tooltip-arrow {
    bottom: 0;
    left: 50%;
    margin-left: -5px;
    border-width: 5px 5px 0;
    border-top-color: #000
}

.tooltip.top-left .tooltip-arrow {
    right: 5px
}

.tooltip.top-left .tooltip-arrow,.tooltip.top-right .tooltip-arrow {
    bottom: 0;
    margin-bottom: -5px;
    border-width: 5px 5px 0;
    border-top-color: #000
}

.tooltip.top-right .tooltip-arrow {
    left: 5px
}

.tooltip.right .tooltip-arrow {
    top: 50%;
    left: 0;
    margin-top: -5px;
    border-width: 5px 5px 5px 0;
    border-right-color: #000
}

.tooltip.left .tooltip-arrow {
    top: 50%;
    right: 0;
    margin-top: -5px;
    border-width: 5px 0 5px 5px;
    border-left-color: #000
}

.tooltip.bottom .tooltip-arrow {
    top: 0;
    left: 50%;
    margin-left: -5px;
    border-width: 0 5px 5px;
    border-bottom-color: #000
}

.tooltip.bottom-left .tooltip-arrow {
    top: 0;
    right: 5px;
    margin-top: -5px;
    border-width: 0 5px 5px;
    border-bottom-color: #000
}

.tooltip.bottom-right .tooltip-arrow {
    top: 0;
    left: 5px;
    margin-top: -5px;
    border-width: 0 5px 5px;
    border-bottom-color: #000
}

.tooltip-inner {
    max-width: 200px;
    padding: 3px 8px;
    color: #fff;
    text-align: center;
    background-color: #000;
    border-radius: 4px
}

.tooltip-arrow {
    position: absolute;
    width: 0;
    height: 0;
    border-color: transparent;
    border-style: solid
}

.popover {
    position: absolute;
    top: 0;
    left: 0;
    z-index: 1060;
    display: none;
    max-width: 276px;
    padding: 1px;
    font-family: Helvetica Neue,Helvetica,Arial,sans-serif;
    font-style: normal;
    font-weight: 400;
    line-height: 1.42857143;
    line-break: auto;
    text-align: left;
    text-align: start;
    text-decoration: none;
    text-shadow: none;
    text-transform: none;
    letter-spacing: normal;
    word-break: normal;
    word-spacing: normal;
    word-wrap: normal;
    white-space: normal;
    font-size: 14px;
    background-color: #fff;
    background-clip: padding-box;
    border: 1px solid #ccc;
    border: 1px solid rgba(0,0,0,.2);
    border-radius: 6px;
    -webkit-box-shadow: 0 5px 10px rgba(0,0,0,.2);
    box-shadow: 0 5px 10px rgba(0,0,0,.2)
}

.popover.top {
    margin-top: -10px
}

.popover.right {
    margin-left: 10px
}

.popover.bottom {
    margin-top: 10px
}

.popover.left {
    margin-left: -10px
}

.popover>.arrow {
    border-width: 11px
}

.popover>.arrow,.popover>.arrow:after {
    position: absolute;
    display: block;
    width: 0;
    height: 0;
    border-color: transparent;
    border-style: solid
}

.popover>.arrow:after {
    content: "";
    border-width: 10px
}

.popover.top>.arrow {
    bottom: -11px;
    left: 50%;
    margin-left: -11px;
    border-top-color: #999;
    border-top-color: rgba(0,0,0,.25);
    border-bottom-width: 0
}

.popover.top>.arrow:after {
    bottom: 1px;
    margin-left: -10px;
    content: " ";
    border-top-color: #fff;
    border-bottom-width: 0
}

.popover.right>.arrow {
    top: 50%;
    left: -11px;
    margin-top: -11px;
    border-right-color: #999;
    border-right-color: rgba(0,0,0,.25);
    border-left-width: 0
}

.popover.right>.arrow:after {
    bottom: -10px;
    left: 1px;
    content: " ";
    border-right-color: #fff;
    border-left-width: 0
}

.popover.bottom>.arrow {
    top: -11px;
    left: 50%;
    margin-left: -11px;
    border-top-width: 0;
    border-bottom-color: #999;
    border-bottom-color: rgba(0,0,0,.25)
}

.popover.bottom>.arrow:after {
    top: 1px;
    margin-left: -10px;
    content: " ";
    border-top-width: 0;
    border-bottom-color: #fff
}

.popover.left>.arrow {
    top: 50%;
    right: -11px;
    margin-top: -11px;
    border-right-width: 0;
    border-left-color: #999;
    border-left-color: rgba(0,0,0,.25)
}

.popover.left>.arrow:after {
    right: 1px;
    bottom: -10px;
    content: " ";
    border-right-width: 0;
    border-left-color: #fff
}

.popover-title {
    padding: 8px 14px;
    margin: 0;
    font-size: 14px;
    background-color: #f7f7f7;
    border-bottom: 1px solid #ebebeb;
    border-radius: 5px 5px 0 0
}

.popover-content {
    padding: 9px 14px
}

.carousel,.carousel-inner {
    position: relative
}

.carousel-inner {
    width: 100%;
    overflow: hidden
}

.carousel-inner>.item {
    position: relative;
    display: none;
    -webkit-transition: left .6s ease-in-out;
    -o-transition: .6s ease-in-out left;
    transition: left .6s ease-in-out
}

.carousel-inner>.item>a>img,.carousel-inner>.item>img {
    line-height: 1
}

@media (-webkit-transform-3d),(transform-3d) {
    .carousel-inner>.item {
        -webkit-transition: -webkit-transform .6s ease-in-out;
        -o-transition: -o-transform .6s ease-in-out;
        transition: -webkit-transform .6s ease-in-out;
        transition: transform .6s ease-in-out;
        transition: transform .6s ease-in-out,-webkit-transform .6s ease-in-out,-o-transform .6s ease-in-out;
        -webkit-backface-visibility: hidden;
        backface-visibility: hidden;
        -webkit-perspective: 1000px;
        perspective: 1000px
    }

    .carousel-inner>.item.active.right,.carousel-inner>.item.next {
        -webkit-transform: translate3d(100%,0,0);
        transform: translate3d(100%,0,0);
        left: 0
    }

    .carousel-inner>.item.active.left,.carousel-inner>.item.prev {
        -webkit-transform: translate3d(-100%,0,0);
        transform: translate3d(-100%,0,0);
        left: 0
    }

    .carousel-inner>.item.active,.carousel-inner>.item.next.left,.carousel-inner>.item.prev.right {
        -webkit-transform: translateZ(0);
        transform: translateZ(0);
        left: 0
    }
}

.carousel-inner>.active,.carousel-inner>.next,.carousel-inner>.prev {
    display: block
}

.carousel-inner>.active {
    left: 0
}

.carousel-inner>.next,.carousel-inner>.prev {
    position: absolute;
…
.cti-tagSearch-dominator .ti-tagSearch-dominator-dropdown-btn {
    background-color: #fff;
    width: 30px;
    border-radius: 0 2px 2px 0;
    box-sizing: border-box;
    height: calc(100% - 2px);
    line-height: calc(100% - 2px);
    position: absolute;
    top: 1px;
    left: 1px;
    z-index: 1
}

.cti-tagSearch-dominator .ti-tagSearch-dominator-dropdown-btn:before {
    width: 0;
    height: 0;
    border-left: 4px solid transparent;
    border-right: 4px solid transparent;
    border-top: 5px solid #575d6c;
    content: "";
    position: absolute;
    top: calc(50% - 3.5px);
    right: 11px
}

.cti-tagSearch-dominator .ti-tagSearch-dominator-dropdown-btn:hover {
    background-color: #fff
}

.cti-tagSearch-dominator .ti-tagSearch-dominator-dropdown-btn:hover:before {
    border-top-color: #5e7ce0
}

.cti-tagSearch-dominator .ti-searchbox-container {
    width: 100%
}

.cti-tagSearch-dominator .ti-searchbox-container .ti-searchbox-input {
    padding-left: 30px
}

.cti-rename-container {
    display: inline-block;
    vertical-align: middle
}

.cti-rename-edit {
    padding: 0 10px 0 5px;
    font-size: 16px;
    cursor: pointer;
    visibility: hidden;
    line-height: 16px
}

.cti-rename-edit:hover {
    color: #5e7ce0
}

.cti-rename-edit-disable {
    cursor: not-allowed;
    color: #dfe1e6!important
}

.ti-rename-editor-icon-show {
    visibility: visible
}

.cti-rename-modal {
    width: 220px!important
}

.cti-rename-modal .ti-modal-content {
    -moz-box-shadow: 0 2px 5px 0 rgba(0,0,0,.2);
    -webkit-box-shadow: 0 2px 5px 0 rgba(0,0,0,.2);
    box-shadow: 0 2px 5px 0 rgba(0,0,0,.2)
}

.cti-rename-backdrop {
    opacity: 0!important
}

.cti-rename-modal-unvisible {
    opacity: 0
}

.cti-rename-modal-unvisible input,.cti-rename-modal-unvisible textarea {
    font-size: 0!important
}

.cti-rename-modal-content {
    padding: 10px
}

.cti-rename-modal-content .cti-rename-modal-title {
    color: #252b3a
}

.cti-rename-modal-content .cti-rename-modal-input {
    padding: 8px 0
}

.cti-rename-modal-content .cti-rename-modal-input .ti-text-container {
    width: 100%
}

.cti-rename-modal-content .cti-rename-modal-cancelBtn {
    margin-left: 8px
}

.ti-table>.ti-table-container>table>tbody>tr .icon-cloud-message-new,.ti-table>table>tbody>tr .icon-cloud-message-new {
    cursor: pointer;
    color: #fa9841;
    padding-left: 4px
}

.ti-table>.ti-table-container>table>tbody>tr .cti-rename-container .cti-rename-edit,.ti-table>table>tbody>tr .cti-rename-container .cti-rename-edit {
    visibility: hidden
}

.ti-table>.ti-table-container>table>tbody>tr .cti-rename-container .icon-cloud-message-new,.ti-table>table>tbody>tr .cti-rename-container .icon-cloud-message-new {
    padding-right: 10px;
    display: none
}

.ti-table>.ti-table-container>table>tbody>tr .cti-rename-container.cti-rename-new-icon-show .cti-rename-edit,.ti-table>table>tbody>tr .cti-rename-container.cti-rename-new-icon-show .cti-rename-edit {
    display: none
}

.ti-table>.ti-table-container>table>tbody>tr .cti-rename-container.cti-rename-new-icon-show .icon-cloud-message-new,.ti-table>table>tbody>tr .cti-rename-container.cti-rename-new-icon-show .icon-cloud-message-new {
    display: inline
}

.ti-table>.ti-table-container>table>tbody>tr:hover .cti-rename-container .cti-rename-edit,.ti-table>table>tbody>tr:hover .cti-rename-container .cti-rename-edit {
    visibility: visible
}

.ti-table>.ti-table-container>table>tbody>tr:hover .cti-rename-container .icon-cloud-message-new,.ti-table>table>tbody>tr:hover .cti-rename-container .icon-cloud-message-new {
    display: none
}

.ti-table>.ti-table-container>table>tbody>tr:hover .cti-rename-container.cti-rename-new-icon-show .cti-rename-edit,.ti-table>table>tbody>tr:hover .cti-rename-container.cti-rename-new-icon-show .cti-rename-edit {
    display: inline
}

.ti-table>.ti-table-container>table>tbody>tr:hover .cti-rename-container.cti-rename-new-icon-show .icon-cloud-message-new,.ti-table>table>tbody>tr:hover .cti-rename-container.cti-rename-new-icon-show .icon-cloud-message-new {
    display: none
}

.cti-rename-show-editor-continuous .cti-rename-edit {
    visibility: visible
}

.cti-icon-container-in-table>.cti-icon-container {
    vertical-align: baseline
}

.cti-icon-container-in-table>.cti-icon-container .icon-cloud-action-tip {
    line-height: 16px;
    width: 21px;
    height: 16px
}

.cti-icon-container-in-table>.cti-icon-container .ti-head-filter-container {
    display: inline-block;
    vertical-align: middle
}

.cti-icon-container-in-table>.cti-icon-container .ti-icon-filter {
    display: inline-block;
    width: 16px;
    color: #575d6c
}

.cti-icon-container-in-table>.cti-icon-container .cti-rename-edit.icon-cloud-action-edit:before {
    display: inline-block;
    width: 16px;
    height: 16px
}

.cti-icon-container {
    display: inline-block;
    vertical-align: middle
}

.cti-binding-msg-body {
    position: static!important
}

.cti-binding-msg {
    width: 440px!important
}

.cti-binding-alert {
    position: absolute;
    top: 40px;
    left: 0;
    right: 0;
    margin: 0 auto;
    z-index: 9999;
    width: calc(100% - 80px)!important
}

.cti-binding-const-color {
    color: #f66f6a
}

.cti-to-binding-color {
    color: #526ecc;
    text-decoration: none;
    cursor: pointer
}

.cti-to-binding-color:hover {
    color: #344899;
    text-decoration: underline
}

.cti-recharge-msg-body {
    position: static!important
}

.cti-recharge-alert {
    position: absolute;
    top: 40px;
    left: 0;
    right: 0;
    margin: 0 auto;
    z-index: 9999;
    width: calc(100% - 60px)!important
}

.cti-recharge-const-color {
    color: #f66f6a
}

.cti-recharge-contentTitle-link,.cti-to-recharge-color {
    color: #526ecc;
    text-decoration: none;
    cursor: pointer
}

.cti-recharge-contentTitle-link:hover,.cti-to-recharge-color:hover {
    color: #344899;
    text-decoration: underline
}

.cti-loadbar-wrapper {
    background-color: #f5f5f5;
    width: 250px;
    height: 16px;
    box-shadow: inset 0 1px 2px rgba(0,0,0,.1);
    border-radius: 2px;
    display: inline-block
}

.cti-loadbar-bar-mask {
    border-radius: 2px;
    width: 0;
    height: 100%;
    overflow: hidden
}

.cti-loadbar-scroll-box {
    font-size: 16px;
    position: relative;
    height: 100%;
    background-color: #60b0ff;
    background-size: 1em 1em;
    background-image: linear-gradient(45deg,transparent,transparent .3536em,#7fbfff 0,#7fbfff .7071em,transparent 0,transparent 1.0607em,#7fbfff 0,#7fbfff 1.4142em);
    animation: cti-loadbar-scroll-box-keyframes .5s linear infinite
}

@keyframes cti-loadbar-scroll-box-keyframes {
    0% {
        background-position: 0 0
    }

    to {
        background-position: 1em 0
    }
}

.cti-identification-msg-body {
    position: static!important
}

.cti-identification-alert {
    position: absolute;
    top: 40px;
    left: 0;
    right: 0;
    margin: 0 auto;
    z-index: 9999;
    width: calc(100% - 60px)!important
}

.cti-identification-const-color {
    color: #526ecc
}

.cti-identification-const-color:hover {
    cursor: pointer
}

.cti-permissionLimited-color {
    color: #f66f6a
}

.cti-searchbox-wrapper {
    display: inline-block;
    width: 100%
}

.cti-searchbox-container {
    *zoom:1;width: 100%;
    margin: 0;
    position: relative;
    vertical-align: middle;
    line-height: 1;
    border: 1px solid #adb0b8;
    border-radius: 2px;
    -webkit-box-sizing: border-box;
    -moz-box-sizing: border-box;
    -ms-box-sizing: border-box;
    box-sizing: border-box
}

.cti-searchbox-container:after,.cti-searchbox-container:before {
    display: table;
    content: ""
}

.cti-searchbox-container:after {
    content: "";
    display: table;
    clear: both
}

.cti-searchbox-container.cti-searchbox-err {
    border-color: #f66f6a;
    background: #ffeeed
}

.cti-searchbox-input-container {
    display: inline-block;
    height: 22px
}

.cti-searchbox-input-grow {
    flex-grow: 1;
    -ms-flex-grow: 1
}

.cti-searchbox-focused {
    border: 1px solid #5e7ce0
}

.cti-searchbox-tags-container {
    -webkit-box-sizing: border-box;
    -moz-box-sizing: border-box;
    -ms-box-sizing: border-box;
    box-sizing: border-box;
    user-select: none;
    list-style: none;
    display: flex;
    display: -ms-flexbox
}

.cti-searchbox-tags-container::-webkit-scrollbar {
    width: 10px;
    height: 10px;
    background: transparent
}

.cti-searchbox-tags-container::-webkit-scrollbar-track {
    background: transparent
}

.cti-searchbox-tags-container::-webkit-scrollbar-thumb {
    border: 1px solid #fff;
    border-radius: 5px;
    background: #5c6173
}

.cti-searchbox-tags-container::-webkit-scrollbar-button {
    height: 1px;
    width: 1px
}

.cti-searchbox-content-left {
    width: 100%;
    flex-grow: 1;
    -ms-flex-grow: 1;
    display: flex;
    display: -ms-flexbox;
    flex-wrap: wrap;
    -ms-flex-wrap: wrap;
    overflow: auto
}

.cti-searchbox-tag-list {
    float: left;
    height: 22px;
    margin: 2px 0 0 2px;
    padding: 0 38px 0 10px;
    background-color: #eef0f5;
    border-radius: 2px;
    -webkit-box-sizing: border-box;
    -moz-box-sizing: border-box;
    -ms-box-sizing: border-box;
    box-sizing: border-box;
    position: relative
}

.cti-searchbox-tag-list .cti-searchbox-tag-label {
    height: 22px;
    width: 100%;
    line-height: 22px;
    overflow: hidden;
    white-space: nowrap;
    text-overflow: ellipsis
}

.cti-searchbox-tag-list .cti-searchbox-tag-label:hover {
    color: #5e7ce0
}

.cti-searchbox-tag-list .cti-searchbox-tag-clear {
    font-size: 12px;
    position: absolute;
    right: 10px;
    top: 5px;
    background-color: transparent;
    color: #adb0b8;
    cursor: pointer
}

.cti-searchbox-tag-list .cti-searchbox-tag-clear:hover {
    color: #5e7ce0
}

.cti-searchbox-tag-list .cti-searchbox-tag-clear .cti-searchbox-tag-list-content {
    display: inline-block;
    width: 100%
}

.cti-searchbox-tag-list .cti-searchbox-edit-input {
    height: 100%;
    border: none;
    outline: none
}

.cti-searchbox-tag-list .cti-searchbox-tag-content {
    display: inline-block;
    height: 22px;
    line-height: 22px
}

.cti-searchbox-tag-label-seperator {
    margin: 0 5px 0 1px
}

.cti-searchbox-search-field {
    flex-grow: 1;
    -ms-flex-grow: 1;
    display: flex;
    display: -ms-flexbox;
    align-items: center;
    -ms-align-items: center;
    margin-left: 5px;
    white-space: nowrap
}

.cti-searchbox-search-field .cti-searchbox-prop {
    display: inline-block;
    height: 22px;
    line-height: 22px;
    vertical-align: middle
}

.cti-searchbox-search-field .cti-searchbox-input {
    width: 100%;
    height: 22px;
    line-height: 22px;
    margin: 0;
    font-size: 100%;
    color: #252b3a;
    outline: 0;
    border: 0;
    background: transparent!important;
    padding-left: 7px;
    -moz-box-shadow: none;
    -webkit-box-shadow: none;
    box-shadow: none;
    -webkit-box-sizing: border-box;
    -moz-box-sizing: border-box;
    -ms-box-sizing: border-box;
    box-sizing: border-box
}

.cti-searchbox-search-field .cti-searchbox-input.ti-placeholder {
    color: #adb0b8
}

.cti-searchbox-search-field .cti-searchbox-prop-input {
    height: 22px;
    line-height: 22px;
    margin: 0;
    border: none;
    outline: none
}

.cti-searchbox-clear,.cti-searchbox-help,.cti-searchbox-search,.cti-searchbox-setting {
    width: 26px;
    height: 26px;
    font-size: 16px;
    line-height: 26px;
    color: #575d6c;
    text-align: center
}

.cti-searchbox-setting:focus {
    outline: none
}

.cti-searchbox-icon-right {
    display: flex;
    display: -ms-flexbox;
    flex-wrap: nowrap;
    -ms-flex-wrap: nowrap
}

.cti-searchbox-clear {
    position: relative
}

.cti-searchbox-clear:after {
    width: 1px;
    height: 60%;
    content: "";
    background-color: #dfe1e6;
    position: absolute;
    right: 0;
    top: 20%
}

.cti-searchbox-prop-panel .cti-searchbox-prop-value-panel {
    display: inline-block
}

.cti-searchbox-tag-list-edit {
    background-color: #fff;
    padding: 0
}

.cti-searchbox-tag-value {
    display: inline-block;
    min-width: 16px
}

.cti-searchbox-tag-list-value {
    padding-right: 22px
}

.cti-searchbox-tag-key {
    display: inline-block;
    min-width: 10px
}

.cti-searchbox-tag-list-key {
    padding-left: 0
}

.cti-half-modal-containner {
    position: fixed;
    right: 0;
    top: 50px;
    bottom: 0;
    right: -100%;
    background: #fff;
    box-shadow: -6px 10px 40px 0 rgba(0,0,0,.1);
    opacity: 0;
    transition: right .25s ease-out,opacity .25s ease-out;
    -moz-transition: right .25s ease-out,opacity .25s ease-out;
    -ms-transition: right .25s ease-out,opacity .25s ease-out;
    -webkit-transition: right .25s ease-out,opacity .25s ease-out;
    -webkit-box-sizing: border-box;
    -moz-box-sizing: border-box;
    -ms-box-sizing: border-box;
    box-sizing: border-box;
    padding: 0 40px 0 32px;
    overflow-y: auto
}

.cti-half-modal-containner .cti-half-modal-closed-icon {
    margin: 17px 20px 13px 0;
    position: absolute;
    top: 0;
    right: 0;
    color: #575d6c;
    font-size: 12px;
    cursor: pointer
}

.cti-half-modal-containner .cti-half-modal-closed-icon:hover {
    transform: scale(1.1);
    color: #5e7ce0
}

.cti-half-modal-wrapper {
    width: 100%;
    padding-top: 32px;
    max-height: calc(100vh - 50px)
}

.cti-half-modal-content,.cti-half-modal-wrapper {
    height: 100%;
    -webkit-box-sizing: border-box;
    -moz-box-sizing: border-box;
    -ms-box-sizing: border-box;
    box-sizing: border-box
}

.cti-copy-container {
    display: inline-block
}

.cti-copy-container .cti-copy-btn {
    margin: 0 5px
}

.cti-copy-container .cti-copy-btn.cti-copy-in-table {
    margin: 0 10px 0 5px;
    visibility: hidden;
    display: inline-block
}

.ti-table>.ti-table-container>table>tbody>tr>td:hover .cti-copy-in-table,.ti-table>.ti-table-fixed-head>table>tbody>tr>td:hover .cti-copy-in-table,.ti-table>table>tbody>tr>td:hover .cti-copy-in-table {
    visibility: visible
}

[dark-bg].cti-copy-container .cti-icon-btn {
    color: #adb0b8
}

[dark-bg].cti-copy-container .cti-icon-btn:active,[dark-bg].cti-copy-container .cti-icon-btn:focus,[dark-bg].cti-copy-container .cti-icon-btn:hover {
    color: #7693f5
}

.cti-copy-success {
    position: absolute;
    display: none;
    background-color: #333;
    border-radius: 2px;
    line-height: 20px;
    text-align: center;
    color: #fff;
    padding: 10px;
    white-space: nowrap;
    z-index: 5001
}

.cf-countdown-alert a.cf-countdown-alert-link {
    color: #526ecc
}

.cf-countdown-alert a.cf-countdown-alert-link:hover {
    cursor: pointer
}

.cf-countdown-alert a.cf-countdown-alert-link:link,.cf-countdown-alert a.cf-countdown-alert-link:visited {
    color: #526ecc;
    text-decoration: none
}

.cf-countdown {
    cursor: default;
    color: #252b3a;
    font-size: 12px;
    box-sizing: border-box;
    line-height: 14px;
    border-bottom: 1px dashed #575d6c;
    display: inline-block;
    max-width: 100%
}

.cf-countdown.cf-countdown-warn {
    color: #e37d29
}

.cf-countdown.cf-countdown-alarm {
    color: #de504e
}

.cf-countdown .cf-countdown-text {
    display: inline-block;
    max-width: 100%;
    white-space: nowrap;
    overflow: hidden;
    text-overflow: ellipsis
}

.cf-recommend-container {
    display: inline-block;
    font-size: 12px;
    max-width: 685px
}

.cf-recommend-container .cf-recommend-region-smart {
    width: 100%
}

.cf-recommend-region-container {
    display: flex;
    justify-content: space-between
}

.cf-recommend-region-container .cf-recommend-region-content {
    flex-shrink: 1
}

.cf-recommend-text {
    color: #252b3a;
    line-height: 1.5;
    margin-right: 12px;
    white-space: nowrap
}

.cf-recommend-line {
    display: inline-block;
    box-sizing: border-box;
    height: 12px;
    border-left: 1px solid #dfe1e6;
    position: relative;
    top: 2px;
    margin: 0 12px
}

.cf-recommend-label-container {
    cursor: pointer;
    color: #252b3a;
    white-space: nowrap
}

.cf-recommend-label-container:hover {
    color: #526ecc
}

.cf-recommend-icon {
    padding-right: 4px
}

.cf-recommend-label {
    display: inline-block;
    vertical-align: top;
    max-width: 108px;
    line-height: 1.5;
    white-space: nowrap;
    text-overflow: ellipsis;
    overflow: hidden
}

.cf-recommend-num {
    display: inline-block;
    box-sizing: border-box;
    min-width: 16px;
    line-height: 14px;
    text-align: center;
    padding-left: 4px
}

.cf-region-picker-container {
    position: relative;
    display: inline-block;
    width: 200px
}

.cf-region-picker-dominator-container {
    display: inline-block;
    width: 100%
}

.cf-region-picker-panel-item,.cf-region-picker-panel-overflow,.cf-region-picker-panel-title {
    overflow: hidden;
    white-space: nowrap;
    text-overflow: ellipsis
}

.cf-region-picker-panel-container {
    display: inline-block;
    -webkit-box-sizing: border-box;
    -moz-box-sizing: border-box;
    -ms-box-sizing: border-box;
    box-sizing: border-box;
    width: 726px;
    background: #fff;
    border: 1px solid #5e7ce0;
    box-shadow: 0 2px 5px 0 rgba(0,0,0,.2);
    border-radius: 0 2px 2px 2px;
    padding: 12px 10px;
    position: absolute;
    top: calc(100% - 1px);
    left: 0;
    z-index: 1060
}

.cf-region-picker-panel-cover {
    position: absolute;
    top: -1px;
    left: 0;
    background: #dfe1e6;
    height: 1px
}

.cf-region-picker-panel-list {
    *zoom:1}

.cf-region-picker-panel-list:after,.cf-region-picker-panel-list:before {
    display: table;
    content: ""
}

.cf-region-picker-panel-list:after {
    content: "";
    display: table;
    clear: both
}

.cf-region-picker-panel-list:hover .cf-region-picker-panel-ul {
    border-color: #5e7ce0;
    background: #fafafa
}

.cf-region-picker-panel-list:hover .cf-region-picker-panel-title {
    color: #526ecc
}

.cf-region-picker-panel-title {
    display: inline-block;
    width: 68px;
    margin-top: 16px;
    padding-right: 10px;
    line-height: 28px
}

.cf-region-picker-panel-title,.cf-region-picker-panel-ul {
    float: left;
    -webkit-box-sizing: border-box;
    -moz-box-sizing: border-box;
    -ms-box-sizing: border-box;
    box-sizing: border-box
}

.cf-region-picker-panel-ul {
    border-left: 2px solid #dfe1e6;
    padding: 0 20px 16px 16px;
    width: 636px
}

.cf-region-picker-panel-item {
    display: inline-block;
    -webkit-box-sizing: border-box;
    -moz-box-sizing: border-box;
    -ms-box-sizing: border-box;
    box-sizing: border-box;
    width: 148px;
    height: 28px;
    padding: 0 20px;
    margin: 16px 2px 0 0;
    color: #575d6c;
    background: #e9edfa;
    border-radius: 2px;
    text-align: center;
    line-height: 28px;
    cursor: pointer
}

.cf-region-picker-panel-item.cf-region-picker-panel-item-selected,.cf-region-picker-panel-item.cf-region-picker-panel-item-selected:hover {
    color: #fff;
    background: #5e7ce0
}

.cf-region-picker-panel-item.cf-region-picker-panel-item-disabled {
    cursor: not-allowed;
    background: #f5f5f6;
    color: #adb0b8
}

.cf-region-picker-panel-item.cf-region-picker-panel-item-disabled:hover {
    background: #f5f5f6
}

.cf-region-picker-panel-item:hover {
    background: #beccfa
}

.cf-region-picker-panel-item-container {
    display: inline-block;
    position: relative
}

.cf-region-picker-panel-item-container:last-child .cf-region-picker-panel-item,.cf-region-picker-panel-item-container:nth-child(4n) .cf-region-picker-panel-item {
    margin-right: 0
}

.cf-region-picker-panel-item-container:last-child .cti-region-panel-item-icon,.cf-region-picker-panel-item-container:nth-child(4n) .cti-region-panel-item-icon {
    right: 0
}

.cti-region-panel-item-icon {
    position: absolute;
    top: 8px;
    right: 2px;
    font-size: 16px
}

.cf-frozen-alert>.ti-alert-container {
    width: 100%
}

.cf-frozen-alert>.ti-alert-container a {
    color: #526ecc;
    text-decoration: none;
    cursor: pointer
}

.cf-frozen-alert>.ti-alert-container a:hover {
    color: #344899;
    text-decoration: underline
}

.cf-restrict-alert>.ti-alert-container {
    width: 100%
}

.cf-restrict-alert>.ti-alert-container a {
    color: #526ecc;
    text-decoration: none;
    cursor: pointer
}

.cf-restrict-alert>.ti-alert-container a:hover {
    color: #344899;
    text-decoration: underline
}

.cf-restrict-msg-body .ti-msg-body {
    position: static!important
}

.ti-msg-content-wrapper .cf-restrict-confirm-content {
    font-size: 14px;
    color: #252b3a
}

.ti-msg-content-wrapper .cf-restrict-confirm-alert {
    position: absolute;
    top: 40px;
    left: 0;
    right: 0;
    margin: 0 auto;
    z-index: 9999;
    width: calc(100% - 80px)!important
}

.ti-msg-content-wrapper .cf-restrict-confirm-alert a {
    color: #526ecc;
    text-decoration: none;
    cursor: pointer
}

.ti-msg-content-wrapper .cf-restrict-confirm-alert a:hover {
    color: #344899;
    text-decoration: underline
}

.cti-swiper-container {
    position: relative;
    margin: 0 40px
}

.cti-swiper-container .cti-swiper-next,.cti-swiper-container .cti-swiper-prev {
    position: absolute;
    width: 30px;
    font-size: 14px;
    top: calc(50% - 15px);
    text-align: center;
    color: #575d6c;
    cursor: pointer
}

.cti-swiper-container .cti-swiper-next:hover,.cti-swiper-container .cti-swiper-prev:hover {
    color: #5e7ce0
}

.cti-swiper-container .cti-swiper-next.cti-swiper-disable,.cti-swiper-container .cti-swiper-prev.cti-swiper-disable {
    cursor: not-allowed;
    color: #dfe1e6
}

.cti-swiper-container .cti-swiper-prev {
    left: -50px
}

.cti-swiper-container .cti-swiper-next {
    right: -50px
}

.cti-swiper-container .cti-swiper-wrapper {
    position: relative;
    overflow-x: hidden
}

.cti-swiper-container .cti-swiper-wrapper .cti-swiper-cards-container {
    position: relative;
    display: flex;
    flex-flow: row nowrap;
    justify-content: flex-start;
    align-items: stretch;
    -moz-transition: left 1s;
    -webkit-transition: left 1s;
    -ms-transition: left 1s;
    -o-transition: left 1s;
    transition: left 1s
}

.cti-swiper-container .cti-swiper-pagination-bullets {
    text-align: center
}

.cti-swiper-container .cti-swiper-pagination-bullets .cti-swiper-pagination-bullet {
    border-radius: 2.5px;
    border: 2.5px solid #adb0b8;
    display: inline-block;
    margin-left: 6px
}

.cti-swiper-container .cti-swiper-pagination-bullets .cti-swiper-pagination-bullet:first-child {
    margin-left: 0
}

.cti-swiper-container .cti-swiper-pagination-bullets .cti-swiper-pagination-bullet.cti-swiper-pagination-bullet-active {
    width: 20px;
    border-color: #575d6c
}

.cti-swiper-container .cti-swiper-card {
    flex: 1;
    flex-grow: 1;
    flex-shrink: 1
}

.cti-smart-container {
    display: inline-block;
    border-radius: 2px;
    border: 1px solid transparent;
    position: relative
}

.cti-smart-container.cti-smart-container-normal {
    padding: 12px 20px
}

.cti-smart-container.cti-smart-container-small {
    padding: 4px 12px
}

.cti-smart-prompt.cti-smart-border-always,.cti-smart-prompt.cti-smart-border-hover:hover {
    background: #f2f5fc;
    border-color: #5e7ce0
}

.cti-smart-prompt .cti-smart-bg-circle {
    display: inline-block;
    width: 16px;
    height: 16px;
    border-radius: 50%;
    text-align: center;
    line-height: 16px;
    position: absolute;
    left: -8px;
    color: #fff;
    background-image: linear-gradient(-33deg,#7769e8,#58bbff)
}

.cti-smart-warn.cti-smart-border-always,.cti-smart-warn.cti-smart-border-hover:hover {
    background: #fff3e8;
    border-color: #fa9841
}

.cti-smart-warn .cti-smart-bg-circle {
    display: inline-block;
    width: 16px;
    height: 16px;
    border-radius: 50%;
    text-align: center;
    line-height: 16px;
    position: absolute;
    left: -8px;
    color: #fff;
    background-image: linear-gradient(-33deg,#ff5541,#ffd347)
}

.cti-smart-error.cti-smart-border-always,.cti-smart-error.cti-smart-border-hover:hover {
    background: #ffeeed;
    border-color: #f66f6a
}

.cti-smart-error .cti-smart-bg-circle {
    display: inline-block;
    width: 16px;
    height: 16px;
    border-radius: 50%;
    text-align: center;
    line-height: 16px;
    position: absolute;
    left: -8px;
    color: #fff;
    background-image: linear-gradient(-33deg,#ff41a1,#ff8a5b)
}

.cti-anchor-container {
    width: 160px;
    padding: 30px 0;
    overflow: hidden;
    box-sizing: border-box
}

.cti-anchor-link {
    padding: 0 0 32px;
    position: relative
}

.cti-anchor-link:after {
    content: "";
    position: absolute;
    left: 24.5px;
    top: 18px;
    width: 1px;
    height: calc(100% - 18px);
    background-color: #dfe1e6
}

.cti-anchor-link:last-child {
    padding-bottom: 0
}

.cti-anchor-link:last-child:after {
    display: none
}

.cti-anchor-link-title {
    padding: 0 20px 0 50px;
    text-decoration: none;
    color: #252b3a;
    line-height: 18px;
    position: relative;
    display: block;
    word-wrap: break-word
}

.cti-anchor-link-title:before {
    content: "";
    position: absolute;
    left: 20px;
    top: 4px;
    width: 10px;
    height: 10px;
    background-color: #fff;
    border: 2px solid #dfe1e6;
    border-radius: 50%;
    box-sizing: border-box
}

.cti-anchor-link-title:hover {
    color: #526ecc
}

.cti-anchor-link-title:focus {
    outline: none
}

.cti-anchor-link-active>.cti-anchor-link-title {
    color: #526ecc
}

.cti-anchor-link-active>.cti-anchor-link-title:before {
    border-color: #5e7ce0
}

.cti-subtitle-container {
    height: 24px;
    line-height: 24px;
    display: inline-block;
    width: 100%
}

.cti-subtitle-container .cti-subtitle-back {
    display: inline-block;
    position: relative;
    cursor: pointer;
    font-size: 12px;
    margin-right: 12px;
    vertical-align: top
}

.cti-subtitle-container .cti-subtitle-back .cti-subtitle-icon {
    display: inline-block;
    width: 30px;
    padding-left: 10px;
    color: #575d6c;
    text-decoration: none;
    font-weight: 700
}

.cti-subtitle-container .cti-subtitle-back .cti-subtitle-icon:hover {
    color: #5e7ce0
}

.cti-subtitle-container .cti-subtitle-back:after {
    content: "";
    position: absolute;
    height: 16px;
    right: 0;
    top: 4px;
    border-right: 1px solid #dfe1e6
}

.cti-subtitle-container .cti-subtitle-darkbg-back:after {
    opacity: .2
}

.cti-subtitle-container .cti-subtitle-darkbg-back .cti-subtitle-icon {
    color: #fff
}

.cti-subtitle-container .cti-subtitle-darkbg-back .cti-subtitle-icon:hover {
    color: #7693f5
}

.cti-subtitle-container .cti-subtitle-darkbg-back.cti-subtitle-label {
    color: #fff
}

.cti-subtitle-container .cti-subtitle-label {
    display: inline-block;
    font-size: 16px;
    color: #252b3a;
    white-space: nowrap;
    text-overflow: ellipsis;
    overflow: hidden;
    max-width: calc(100% - 62px);
    cursor: default;
    font-weight: 700;
    vertical-align: top
}

.cti-guides-container {
    padding-top: 15px;
    font-size: 0
}

.cti-guides-container,.cti-guides-container .cti-guides-body {
    -webkit-box-sizing: border-box;
    -moz-box-sizing: border-box;
    -ms-box-sizing: border-box;
    box-sizing: border-box
}

.cti-guides-container .cti-guides-body {
    background: #fff;
    box-shadow: 0 1px 3px 0 rgba(0,0,0,.1);
    width: 100%;
    padding: 24px;
    margin-top: 8px;
    display: block;
    font-size: 12px
}

.cti-guides-container .cti-guides-wrapper {
    display: flex;
    flex-flow: row nowrap;
    justify-content: flex-start;
    align-items: stretch
}

.cti-guides-container .cti-guides-wrapper .cti-guieds-card-container {
    position: relative;
    display: inline-block;
    margin-right: 8px;
    box-shadow: 0 1px 3px 0 rgba(0,0,0,.1);
    background: #fff;
    vertical-align: top;
    flex: 1;
    flex-grow: 1;
    flex-shrink: 1
}

.cti-guides-container .cti-guides-wrapper .cti-guieds-card-container:hover {
    box-shadow: 0 2px 8px 0 rgba(94,124,224,.3)
}

.cti-guides-container .cti-guides-wrapper .cti-guieds-card-container:last-child {
    margin-right: 0
}

.cti-guides-container .cti-guides-wrapper .cti-guieds-card-container .cti-guides-card {
    background: #fff;
    border-top: 3px solid #5e7ce0;
    -webkit-box-sizing: border-box;
    -moz-box-sizing: border-box;
    -ms-box-sizing: border-box;
    box-sizing: border-box;
    padding: 24px 24px 20px
}

.cti-guides-container .cti-guides-wrapper .cti-guieds-card-container .cti-guides-card .cti-guides-title {
    background: #fff;
    font-weight: 700;
    font-size: 14px;
    line-height: 1.5;
    color: #252b3a
}

.cti-guides-container .cti-guides-wrapper .cti-guieds-card-container .cti-guides-card .cti-guides-content {
    background: #fff;
    font-size: 12px;
    line-height: 1.5;
    color: #575d6c
}

.cti-guides-container .cti-guides-wrapper .cti-guieds-card-container .cti-guides-circle {
    position: absolute;
    top: -15px;
    left: 24px;
    width: 32px;
    height: 32px;
    border-radius: 50%;
    border: 2px solid #5e7ce0;
    -webkit-box-sizing: border-box;
    -moz-box-sizing: border-box;
    -ms-box-sizing: border-box;
    box-sizing: border-box;
    background: #fff
}

.cti-guides-container .cti-guides-wrapper .cti-guieds-card-container .cti-guides-circle .cti-guides-number {
    color: #526ecc;
    font-size: 20px;
    width: 100%;
    height: 100%;
    line-height: 1.5;
    text-align: center;
    position: absolute
}

.cti-guides-container .cti-guides-wrapper .cti-guieds-card-container .cti-guides-line {
    position: absolute;
    width: 34px;
    height: 3px;
    background: #fff;
    left: 23px
}

.cti-guides-container .cti-guides-wrapper .cti-guieds-card-container .cti-guides-space {
    width: 100%;
    height: 8px;
    position: absolute;
    bottom: -8px;
    background: transparent
}

.cti-guides-container .cti-guides-wrapper .cti-guieds-card-container .cti-guides-space.cti-guides-space-active {
    background: #fff
}

.cti-guides-container .cti-guides-wrapper .cti-guieds-card-container.cti-guides-card-undo .cti-guides-circle {
    border-color: #8a8e99
}

.cti-guides-container .cti-guides-wrapper .cti-guieds-card-container.cti-guides-card-undo .cti-guides-circle .cti-guides-number {
    color: #252b3a
}

.cti-guides-container .cti-guides-wrapper .cti-guieds-card-container.cti-guides-card-undo .cti-guides-card {
    border-top-color: #8a8e99
}

.cti-guides-container .cti-guides-wrapper .cti-guieds-card-container.cti-guides-card-active .cti-guides-circle {
    border-color: #5e7ce0;
    background: #5e7ce0
}

.cti-guides-container .cti-guides-wrapper .cti-guieds-card-container.cti-guides-card-active .cti-guides-circle .cti-guides-number {
    color: #fff
}

.cti-guides-container .cti-guides-wrapper .cti-guieds-card-container.cti-guides-card-active .cti-guides-card {
    border-top-color: #5e7ce0
}

.cti-guides-container .cti-guides-wrapper .cti-guieds-card-container.cti-guides-card-done .cti-guides-circle {
    border-color: #50d4ab
}

.cti-guides-container .cti-guides-wrapper .cti-guieds-card-container.cti-guides-card-done .cti-guides-circle .cti-guides-number {
    color: #50d4ab
}

.cti-guides-container .cti-guides-wrapper .cti-guieds-card-container.cti-guides-card-done .cti-guides-card {
    border-top-color: #50d4ab
}

[small].cti-guides-container .cti-guides-wrapper .cti-guieds-card-container .cti-guides-card {
    padding: 12px 0 12px 24px
}

[small].cti-guides-container .cti-guides-wrapper .cti-guieds-card-container .cti-guides-card .cti-guides-title {
    font-size: 12px;
    font-weight: 400
}

[small].cti-guides-container .cti-guides-wrapper .cti-guieds-card-container .cti-guides-circle {
    width: 20px;
    height: 20px;
    top: -10px
}

[small].cti-guides-container .cti-guides-wrapper .cti-guieds-card-container .cti-guides-circle .cti-guides-number {
    font-size: 12px;
    line-height: 16px
}

[small].cti-guides-container .cti-guides-wrapper .cti-guieds-card-container .cti-guides-line {
    width: 22px
}

[small].cti-guides-container .cti-guides-wrapper .cti-guieds-card-container.cti-guides-card-active .cti-guides-circle {
    border-color: #fa9841;
    background: #fa9841
}

[small].cti-guides-container .cti-guides-wrapper .cti-guieds-card-container.cti-guides-card-active .cti-guides-circle .cti-guides-number {
    color: #fff
}

[small].cti-guides-container .cti-guides-wrapper .cti-guieds-card-container.cti-guides-card-active .cti-guides-card {
    border-top-color: #fa9841
}

.cti-step-container {
    width: 100%
}

.cti-step-container .cti-step-item {
    position: relative;
    background: #fff
}

.cti-step-container .cti-step-item:last-child:before {
    background: transparent
}

.cti-step-container .cti-step-item:before {
    position: absolute;
    left: 5.5px;
    top: 19px;
    content: "";
    width: 1px;
    height: calc(100% - 19px);
    background: #dfe1e6
}

.cti-step-container .cti-step-item .cti-step-content {
    background: #fff;
    padding-left: 16px;
    padding-bottom: 24px
}

.cti-step-container .cti-step-item .cti-step-title {
    position: relative;
    display: inline-block;
    padding-left: 16px;
    padding-bottom: 8px;
    font-size: 12px;
    line-height: 1.5
}

.cti-step-container .cti-step-item .cti-step-title:before {
    position: absolute;
    width: 8px;
    height: 8px;
    border-radius: 50%;
    background: #8a8e99;
    content: "";
    left: 0;
    top: 3px;
    border: 2px solid #eef0f5
}

.cti-step-container .cti-step-item .cti-step-title.cti-step-dot-complete:before {
    background: #50d4ab
}

[large].cti-step-container .cti-step-item:before {
    top: 22px;
    height: calc(100% - 22px)
}

[large].cti-step-container .cti-step-title {
    font-size: 16px
}

[large].cti-step-container .cti-step-title:before {
    background: #575d6c;
    top: 6px
}

.cti-score-container {
    display: inline-block;
    font-weight: 400;
    font-size: 12px;
    line-height: 1.5
}

.cti-score-container .cti-score-items .cti-score-item {
    display: inline-block;
    text-align: center;
    cursor: pointer;
    width: 36px;
    height: 28px;
    line-height: 28px;
    border-radius: 2px 0 2px;
    margin-right: 4px;
    background-color: #e9edfa
}

.cti-score-container .cti-score-items .cti-score-item:last-child {
    margin-right: 0
}

.cti-score-container .cti-score-items .cti-score-item:hover {
    background-color: #beccfa
}

.cti-score-container .cti-score-items .cti-score-item.cti-score-item-active {
    background-color: #5e7ce0;
    color: #fff
}

.cti-score-container .cti-score-text {
    display: block;
    color: #8a8e99;
    margin-top: 8px
}

.cti-score-container .cti-score-text span:last-child {
    float: right
}

.cti-collapse-box {
    background: #fff;
    padding: 24px 32px;
    box-shadow: 0 1px 3px 0 rgba(0,0,0,.1);
    position: relative
}

.cti-collapse-box .cti-collapse-box-close {
    font-size: 16px;
    cursor: pointer;
    position: absolute;
    top: 20px;
    right: 20px
}

.cti-feedback-openModal {
    font-size: 12px;
    color: #526ecc;
    text-decoration: none;
    cursor: pointer
}

.cti-feedback-openModal:hover {
    color: #344899;
    text-decoration: underline
}

.cti-feedback-title {
    font-size: 20px;
    font-weight: 700;
    color: #252b3a;
    text-align: left;
    padding-bottom: 8px;
    line-height: 1.5
}

.cti-feedback-introduce {
    font-size: 12px;
    line-height: 1.5;
    color: #8a8e99;
    padding-bottom: 20px;
    border-bottom: 1px solid #dfe1e6;
    margin-bottom: 20px
}

.cti-feedback-question-title {
    font-size: 14px;
    color: #252b3a;
    font-weight: 700;
    line-height: 1.5
}

.cti-feedback-title-space {
    padding-bottom: 16px
}

.cti-feedback-title-space1 {
    padding-bottom: 12px
}

.cti-feedback-title-space2 {
    padding-bottom: 4px
}

.cti-feedback-reason-prompt {
    font-size: 12px;
    font-weight: 400;
    color: #8a8e99;
    padding-bottom: 16px
}

.cti-feedback-reason-error {
    color: #f66f6a
}

.cti-feedback-question {
    position: relative;
    font-size: 14px;
    color: #252b3a;
    line-height: 1.5;
    margin-bottom: 16px
}

.cti-feedback-question .ti-icon-staricon {
    padding-right: 4px;
    color: #ff4c4c
}

.cti-feedback-question:last-child {
    margin-bottom: 0
}

.cti-feedback-question .cti-feedback-score-prompt {
    font-size: 12px;
    color: #8a8e99;
    font-weight: 400;
    margin-bottom: 16px
}

.cti-feedback-checkbox-list {
    display: inline-block;
    width: 50%;
    font-size: 12px;
    margin-bottom: 20px;
    padding-right: 20px;
    vertical-align: top
}

.cti-feedback-checkbox-list:last-child,.cti-feedback-checkbox-list:nth-last-child(2) {
    margin-bottom: 0
}

.cti-feedback-other-suggest-textarea {
    width: calc(100% - 17px);
    height: 136px;
    font-size: 12px
}

.cti-feedback-other-reason {
    width: calc(100% - 17px);
    margin-top: 16px;
    margin-bottom: 8px
}

.cti-feedback-submit {
    position: fixed;
    height: 80px;
    border-top: 1px solid #dfe1e6;
    -webkit-box-sizing: border-box;
    -moz-box-sizing: border-box;
    -ms-box-sizing: border-box;
    box-sizing: border-box;
    background: #fff;
    bottom: 0;
    padding-top: 20px
}

.cti-feedback-submit .cti-feedback-submit-button {
    float: right
}

.cti-feedback-template {
    height: 80px;
    width: 100%
}

.cti-feedback-unifyvalid {
    display: flex;
    align-items: center;
    color: #f66f6a;
    margin-top: -12px;
    margin-bottom: 16px;
    font-size: 12px;
    line-height: 24px
}

.cti-feedback-unifyvalid-icon {
    color: #f66f6a;
    margin-right: 10px;
    font-size: 16px
}

.cti-feedback-external {
    padding-top: 4px
}

.cti-feedback-required-icon {
    position: absolute;
    left: -15px
}

.cf-frozen-page-content {
    margin: 200px auto 0;
    text-align: center
}

.cf-frozen-page-content .cf-frozen-page-image {
    display: inline-block;
    width: 260px;
    height: 260px
}

.cf-frozen-page-content .cf-frozen-page-image div {
    background-image: url(//console-static.huaweicloud.com/static/cce/20.8.18/img/frozen.920d72ab6eaf920afa5303f1e6666213.png);
    background-repeat: no-repeat;
    background-size: 100%;
    width: 100%;
    height: 100%;
    margin-top: 38px
}

.cf-frozen-page-content .cf-frozen-page-label {
    color: #252b3a;
    font-size: 20px
}

.cf-frozen-page-content .cf-frozen-page-info {
    font-size: 14px;
    max-width: 650px;
    margin: 5px auto
}

.cf-frozen-page-content .cf-frozen-page-back-service-list {
    margin-top: 5px
}

.cf-frozen-page-content .cf-frozen-page-back-service-list a {
    color: #526ecc;
    cursor: pointer;
    text-decoration: none
}

.cf-frozen-page-content .cf-frozen-page-back-service-list a span {
    margin-right: 5px
}

.cf-frozen-page-content .cf-frozen-page-back-service-list a:hover {
    color: #344899
}

.cti-contact-survey-container {
    position: relative;
    background: #fff;
    width: 100%;
    padding: 24px 30px 24px 32px;
    box-shadow: 0 1px 3px 0 rgba(0,0,0,.1)
}

.cti-contact-survey-question {
    margin-bottom: 16px
}

.cti-contact-survey-textarea {
    display: block;
    width: 100%;
    height: 96px
}

.cti-contact-survey-question-title {
    position: relative;
    font-size: 14px;
    font-weight: 700;
    padding-bottom: 12px;
    line-height: 20px
}

.cti-contact-survey-submit {
    margin-top: 8px
}

.cti-contact-survey-required {
    position: absolute;
    color: #f66f6a;
    left: -15px
}

.cti-contact-survey-close {
    position: absolute;
    right: 20px;
    top: 20px
}

.cti-phone-number-border-right,.cti-phone-number-container .cti-phone-number-select .ti-select-dominator-container:before {
    content: "";
    position: absolute;
    right: 0;
    top: 0;
    border-left: 1px solid transparent;
    height: 26px;
    z-index: 1
}

.cti-phone-number-container {
    position: relative;
    width: 300px;
    display: inline-block
}

.cti-phone-number-container .cti-phone-number-select {
    width: 80px
}

.cti-phone-number-container .cti-phone-number-select .ti-select-dominator-container {
    border-right: 0;
    border-top-right-radius: 0;
    border-bottom-right-radius: 0
}

.cti-phone-number-container .cti-phone-number-select .ti-select-dominator-container:not(.ti-validate-error):not(.ti-select-dominator-disable):hover:before {
    border-left-color: #575d6c
}

.cti-phone-number-container .cti-phone-number-select .ti-select-dominator-container:not(.ti-validate-error):not(.ti-select-dominator-disable).ti-select-dominator-container-focused:before {
    border-left-color: #5e7ce0
}

.cti-phone-number-container .cti-phone-number-select .ti-select-dominator-container.ti-validate-error.ti-select-dominator-container-focused:before,.cti-phone-number-container .cti-phone-number-select .ti-select-dominator-container.ti-validate-error:hover:before {
    border-left-color: #f66f6a
}

.cti-phone-number-container .cti-phone-number-select .ti-select-dominator-container .ti-select-dominator-dropdown-btn:before {
    content: "";
    position: absolute;
    right: 0;
    top: 5px;
    bottom: 5px;
    border-left: 1px solid #dfe1e6
}

.cti-phone-number-container input[ti-text].cti-phone-number-input {
    position: absolute;
    width: 220px;
    border-left: 0;
    border-top-left-radius: 0;
    border-bottom-left-radius: 0
}

.cti-phone-number-container input[ti-text].cti-phone-number-input.cti-phone-number-select-disable {
    width: 221px;
    border: 1px solid #adb0b8;
    margin-left: -1px
}

.cti-phone-number-container input[ti-text].cti-phone-number-input:hover {
    width: 221px;
    border: 1px solid #575d6c;
    margin-left: -1px
}

.cti-phone-number-container input[ti-text].cti-phone-number-input:focus {
    width: 221px;
    border: 1px solid #5e7ce0;
    margin-left: -1px
}

.cti-help-bubble-container {
    background: #fff;
    box-shadow: 0 2px 5px 0 rgba(0,0,0,.2);
    position: absolute;
    right: 0;
    height: 660px;
    width: 400px;
    z-index: 4999
}

.cti-help-bubble-header {
    height: 48px;
    padding: 12px 20px;
    background: #7693f5
}

.cti-help-bubble-header-title {
    font-size: 16px;
    font-weight: 700;
    color: #fff;
    line-height: 1.5
}

.cti-help-bubble-header-prev {
    color: #fff;
    font-size: 16px;
    line-height: 1.5;
    margin-right: 8px;
    vertical-align: bottom
}

.cti-help-bubble-header-prev:hover {
    cursor: pointer
}

.cti-help-bubble-header-close-icon {
    position: absolute;
    right: 20px;
    color: #fff;
    line-height: 24px
}

.cti-help-bubble-header-close-icon:hover {
    cursor: pointer
}

.cti-help-bubble-header-resize-icon {
    position: absolute;
    right: 38px;
    color: #fff;
    line-height: 24px
}

.cti-help-bubble-header-resize-icon:hover {
    cursor: pointer
}

.cti-help-bubble-body {
    overflow-y: auto;
    max-height: 578px;
    padding: 12px 20px 0
}

.cti-help-bubble-footer {
    position: absolute;
    bottom: 0;
    width: 100%;
    height: 34px;
    background: #eef0f5;
    text-align: center;
    padding: 8px 0
}

.cti-help-bubble-footer:after {
    position: absolute;
    left: 50%;
    top: 9px;
    display: block;
    width: 1px;
    height: 16px;
    content: "";
    background: #dfe1e6
}

.cti-help-bubble-footer-block {
    display: inline-block;
    width: 50%
}

.cti-help-bubble-footer-block:hover {
    cursor: pointer
}

.cti-help-bubble-footer-flex {
    display: flex;
    align-items: stretch;
    justify-content: center
}

.cti-help-bubble-footer-text {
    font-size: 12px;
    color: #575d6c;
    text-align: center;
    line-height: 1.5;
    padding-right: 4px
}

.cti-help-bubble-footer-icon {
    font-size: 16px
}

.cti-purchase-list-container {
    display: inline-block;
    width: 340px;
    background: #fff;
    box-shadow: 0 1px 3px 0 rgba(0,0,0,.1);
    padding: 0 16px
}

.cti-purchase-list-header {
    position: relative;
    padding: 16px 0;
    border-bottom: 1px solid #dfe1e6;
    font-size: 16px;
    font-weight: 700;
    color: #252b3a;
    height: 57px;
    line-height: 1.5
}

.cti-purchase-list-header .cti-purchase-list-line {
    position: absolute;
    display: inline-block;
    left: -16px;
    height: 28px;
    border-left: 4px solid #5e7ce0
}

.cti-purchase-list-body {
    overflow: auto
}

.cti-purchase-list-body-noData {
    display: inline-block;
    width: 80px;
    height: 80px;
    margin-top: 32px
}

.cti-purchase-list-body-noData .cti-purchase-list-noData-img {
    background-image: url(data:image/svg+xml;base64,…);
    background-repeat: no-repeat;
    background-size: 100%;
    width: 100%;
    height: 100%
}

.cti-purchase-list-footer {
    padding-bottom: 8px
}

.cti-purchase-list-footer .cti-button {
    width: 100%
}

.cti-purchase-list-footer .cti-button .cti-btn-container,.cti-purchase-list-footer .cti-button .cti-btn-container .ti-btn-danger {
    display: inline-block;
    width: 100%
}

.cti-purchase-list-noPropmt {
    padding-bottom: 16px
}

.cti-purchase-list-link {
    color: #526ecc;
    text-decoration: none;
    cursor: pointer
}

.cti-purchase-list-link:hover {
    color: #344899;
    text-decoration: underline
}

.cti-purchase-list-footer-prompt {
    font-size: 12px;
    color: #8a8e99;
    line-height: 1.5;
    padding-top: 8px
}

.cti-purchase-list-procotol {
    padding-bottom: 8px
}

.cti-purchase-list-price {
    padding-top: 8px
}

.cti-purchase-list-block-container {
    display: flex;
    justify-content: space-between;
    border-bottom: 1px solid #dfe1e6;
    padding: 12px 0
}

.cti-purchase-list-block-container .cti-purchase-list-block-close {
    color: #adb0b8;
    cursor: pointer
}

.cti-purchase-list-cost-label {
    font-size: 12px;
    color: #575d6c;
    line-height: 1.5
}

.cti-purchase-list-price-text {
    font-size: 18px;
    color: #de504e;
    line-height: 26px
}

.cti-purchase-list-nodata-text {
    font-size: 12px;
    color: #8a8e99;
    padding-top: 4px;
    padding-bottom: 20px
}

.cti-purchase-list-body-align {
    text-align: center
}

.cti-purchase-list-nodata-price-text {
    color: #575d6c;
    font-size: 12px
}

.cti-purchase-list-price-discount {
    display: flex;
    display: -ms-flexbox;
    align-items: center;
    -ms-align-items: center;
    flex-wrap: wrap;
    padding-bottom: 20px
}

.cti-purchase-list-price-discount .cf-tipModal {
    margin-left: 12px
}

.cti-purchase-list-price-discount-text {
    display: inline-block;
    font-size: 12px;
    color: #575d6c
}

.cti-purchase-list-discount {
    display: flex;
    display: -ms-flexbox;
    align-items: flex-end;
    margin-top: 4px
}

.cti-product-preview-container {
    width: 280px;
    display: inline-block
}

.cti-product-preview-main {
    height: 280px;
    display: flex;
    justify-content: center;
    align-items: center;
    background-color: #f5f5f6;
    border-radius: 2px;
    cursor: pointer
}

.cti-product-preview-list-container {
    height: 48px;
    margin-top: 12px;
    display: flex;
    justify-content: space-between;
    align-items: center
}

.cti-product-preview-page {
    width: 22px;
    height: 22px;
    line-height: 22px;
    text-align: center;
    border-radius: 2px;
    cursor: pointer;
    color: #575d6c
}

.cti-product-preview-page:not(.cti-product-preview-page-disabled):hover {
    color: #5e7ce0;
    background-color: #e9edfa
}

.cti-product-preview-page:not(.cti-product-preview-page-disabled):active {
    color: #fff;
    background-color: #5e7ce0
}

.cti-product-preview-page.cti-product-preview-page-disabled {
    cursor: not-allowed;
    color: #dfe1e6
}

.cti-product-preview-page[pagePrev] {
    margin-right: 10px
}

.cti-product-preview-page[pageNext] {
    margin-left: 10px
}

.cti-product-preview-list {
    overflow: hidden;
    flex: 1
}

.cti-product-preview-list-bar {
    display: flex;
    position: relative;
    left: 0
}

.cti-product-preview-list-bar .cti-product-preview-item {
    width: 48px;
    height: 48px;
    flex-shrink: 0;
    display: flex;
    justify-content: center;
    align-items: center;
    background-color: #f5f5f6;
    border: 1px solid #f5f5f6;
    border-radius: 2px;
    overflow: hidden
}

.cti-product-preview-list-bar .cti-product-preview-item:not(:last-child) {
    margin-right: 8px
}

.cti-product-preview-list-bar .cti-product-preview-item-selected {
    border-color: #5e7ce0
}

.cti-product-preview-img {
    height: auto;
    max-width: 100%;
    max-height: 100%;
    flex-shrink: 0;
    user-select: none
}

.cti-product-preview-modal {
    width: 680px;
    box-shadow: 0 10px 40px 0 rgba(0,0,0,.1)
}

.cti-product-preview-modal-container {
    height: 600px;
    display: flex;
    justify-content: space-between;
    align-items: center;
    position: relative
}

.cti-product-preview-modal-page {
    width: 40px;
    height: 600px;
    line-height: 600px;
    text-align: center;
    font-size: 32px;
    background-color: #eef0f5;
    cursor: pointer;
    color: #575d6c
}

.cti-product-preview-modal-page:not(.cti-product-preview-modal-page-disabled):hover {
    color: #5e7ce0
}

.cti-product-preview-modal-page.cti-product-preview-modal-page-disabled {
    cursor: not-allowed;
    color: #dfe1e6
}

.cti-product-preview-modal-list {
    overflow: hidden;
    flex: 1
}

.cti-product-preview-modal-list-bar {
    display: flex;
    position: relative;
    left: 0
}

.cti-product-preview-modal-list-bar .cti-product-preview-modal-item {
    width: 600px;
    height: 600px;
    flex-shrink: 0;
    display: flex;
    justify-content: center;
    align-items: center;
    overflow: hidden
}

.cti-product-preview-modal-close {
    width: 40px;
    height: 40px;
    position: absolute;
    top: 0;
    right: 0;
    color: #575d6c;
    cursor: pointer
}

.cti-product-preview-modal-close:hover {
    color: #5e7ce0
}

.cti-product-preview-modal-close .icon-cloud-close {
    position: absolute;
    top: 12px;
    right: 12px
}
